notebook/checkpoint.pth (torch_old, 49715 bytes, 20 tensors)

fc1.weight f4 [64, 37]
00000000: 6ffd c4bc b10c 693d f8b6 7dbd e2e6 efbd
00000010: 5969 7dbd aba5 b1bd 0b9a 9ebd 1153 0a3e
00000020: 10b0 9a3e 5b23 833d d073 97bd ffd2 403d
00000030: 90b0 39be cf16 40be 542b 133d a1fc d63c
00000040: c7d0 1e3e 607c b5bc f04f aabd 82bf 89be
00000050: 396f 4c3e 2dd3 5c3e 8000 65be 7405 a0bd
00000060: 4f71 41be 8bf9 713d 39f9 403d 7054 67bc
00000070: 84c6 7abe fa00 b8bc 5b37 03be a468 e43d
00000080: 9346 63bd 66f7 2dbd 6e2a 4cbe 663b 92be
00000090: f2d9 33bd 0430 d93d de8e a23d 699a 1d3c
000000a0: deae e53d 248d 663d bb8e 93bd 4c16 11be
000000b0: 2b6d 40bd 4ce5 7fbd 35b7 9cbb 9f8e c13d
000000c0: eb2b c1bd 0d81 983c 2179 763d b366 dd3e
000000d0: 6bcf d13c dc82 f03d 4dec a9bd 8f61 eb3c
000000e0: 5e9d 8d3e 2f62 4ebe 0c5a ffbd 8387 24bc
000000f0: a58c 3a3d 8f2e 493d 9e6e 6cbe b695 5f3e
00000100: e749 c13c ee77 493d b24a 013f dacd 61be
00000110: eb87 6a3e d230 ca3d 3e04 013e da7f 4a3e
00000120: e692 a43c 496c e63c c673 3e3d a205 3cbb
00000130: bbc7 833d 04c0 e3bc 3621 b43b c094 0ebe
00000140: b534 9cbd 83e4 ba3d b743 41bc bf9c 0bbd
00000150: 746d 58bc 892a efbc d524 1fbd 4797 19be
00000160: 4e01 543c 4e86 a2bd e609 1bbd 6e35 a23d
00000170: 2aab 973d 3d18 313e 28e5 0dbf fead 29bd
00000180: 7875 b93d 9f22 ca3d 1ced 48be f62e 64be
00000190: 6f67 013e d40a 103d ba7e 873d 9532 7d3d
000001a0: b97d 01bf 3849 e53b 617b 98bc b141 f5bc
000001b0: 122a a3bd f8a5 4739 34d7 a3bd a0d6 9c3e
000001c0: b45b 82be cabe b73c 3d5c aa3c f4ac 64bf
000001d0: 0f7c 2a3c 788d 4bba 8915 ea3c ee1e 7d3d
000001e0: 0554 f93d 8244 79bc 889e 2dbd 4bb1 833c
000001f0: a8a8 34bc e4ec e8bc 75f5 85bd ef9a 0fbc
00000200: 7325 95bd a70f e0bd 2c3c 10be 6fea d03b
00000210: 22c9 1cbd 4d5f 8c3b 8f1a 283d 99aa 3f3d
00000220: 52af 70bc 7060 0fbd 2ced 5d3d a491 233e
00000230: 3255 7b3e 999c 853d 9f17 f53d 4411 8e3d
00000240: 5429 7cbd cd2c 65be 9976 0abb f5a4 ad3b
00000250: 79fd 23be 0812 7dbc e033 1fbe 855d 4cbe
00000260: b6dd cbbd f501 5f3d bb74 ef3d ddf6 18be
00000270: 3e22 273d 4f10 7fbd 5b13 05be f6ce cd3d
00000280: 4c34 5ebd 7998 30be 218c b9be 611d 5abe
00000290: 5ddc 0b3d 1272 86bd 019d acbb f136 273e
000002a0: e425 b5be d791 b73d 7fa0 1c3e 1fee e93d
000002b0: 6144 413e 9ca7 18be 7679 8c3d 5135 523d
000002c0: 9d60 973d 92c0 bc3e df55 323d 434c cbbd
000002d0: 28b3 f7bd 4495 273e 973e 513e cda5 f23c
000002e0: 9a5c 093d 4277 82bd 6eaf f9bb b7f6 26bc
000002f0: 3fdc 3e3c 3fdd 853d eddf d43c 8bbf d63d
00000300: 3141 723d 89f6 a23c 879a d1bd cf92 85bd
00000310: d350 aabb b4c5 cdbc a374 cfbc d1e1 c13b
00000320: 65e2 ddbc 3b91 613b c3ef 853c a68c 9e3b
00000330: 3866 e23b 6524 393d 5ce2 893d 8d77 cd3d
00000340: ea22 0c3e b647 643d 8222 a03e 08c1 00be
00000350: 58df a4bd 9f30 39be e6f5 b3bf d005 a0bc
00000360: af02 c8bc daf3 11bb 68ee 083d 0176 0e3d
00000370: fe95 df3b 057f 6c3a 221b 1d3e 6545 af3c
00000380: 906e dfbd 1f87 d2bd 7042 16bf 6e80 1dbe
00000390: 3032 ebbd c1aa 423d fe31 bb3d b5e3 b93e
000003a0: 3a66 913d 2ac5 083e e26f 893d ad0c 34bd
000003b0: 1846 eebd 7498 22be 1928 73bd d492 d93d
000003c0: b7b5 f83c b903 8f3e e14b 90bd b778 5bbc
000003d0: 256a e13d 2dfa 1bbe 4146 673e f1f9 56be
000003e0: 8771 243d 38c0 ffbc af20 8cbd 56df 51be
000003f0: 0aae a13d 5af1 33bd 80e5 c0bd 3f9e 893c
-0.024046628 0.05689687 -0.06194207 -0.11713959 -0.061868045 -0.08674177 -0.07744225 0.1350825
0.3021245 0.06403228 -0.07395136 0.04707622 -0.1813376 -0.18758701 0.035929993 0.02624351
0.1550933 -0.022154033 -0.08316028 -0.2690392 0.19964303 0.21564932 -0.22363472 -0.0781354
-0.1889088 0.059075873 0.047112677 -0.014119253 -0.2448979 -0.022461403 -0.12814085 0.11152771
-0.055487227 -0.042472266 -0.1993806 -0.28560942 -0.04390902 0.106048614 0.07937406 0.009619334
0.11214994 0.056286946 -0.07204958 -0.14168662 -0.04697911 -0.062474534 -0.004782582 0.09451031
-0.09432205 0.018616224 0.06017411 0.43242416 0.0256116 0.117437094 -0.08297024 0.028733043
0.27659124 -0.20154642 -0.12468347 -0.010042074 0.045544285 0.049116667 -0.23089072 0.21834454
0.02359481 0.04918664 0.505046 -0.22051182 0.22903411 0.09872593 0.12599275 0.19775334
0.020089578 0.028127806 0.04649713 -0.002868988 0.0643458 -0.027801521 0.005497123 -0.13923931
-0.076272406 0.091256164 -0.01179593 -0.03408503 -0.013209689 -0.029195087 -0.038853485 -0.14999114
0.012939764 -0.07935773 -0.037851237 0.07920347 0.07405694 0.17294402 -0.5542779 -0.041425698
0.090556085 0.09869885 -0.196217 -0.22283539 0.12637113 0.035166577 0.06615968 0.061815817
-0.5058246 0.0069972537 -0.01861352 -0.02993855 -0.07967009 0.00019039947 -0.08000031 0.30632496
-0.2546059 0.022429843 0.020795936 -0.89326406 0.010405554 -0.0007764916 0.028574722 0.061797075
0.121742286 -0.015214087 -0.042387515 0.01607575 -0.011026539 -0.02843327 -0.06540958 -0.008764966
-0.072825335 -0.109404854 -0.14085454 0.006375603 -0.038277753 0.0042838217 0.041040953 0.046793554
-0.014690237 -0.03500408 0.054181263 0.15973526 0.24544218 0.06524009 0.11967396 0.06936887
-0.06156285 -0.22380371 -0.0021127819 0.0052992054 -0.16014661 -0.0154461935 -0.15547132 -0.1995755
-0.099543974 0.054445226 0.116921864 -0.14937921 0.04080414 -0.062271412 -0.12995665 0.1004924
-0.054249093 -0.17245664 -0.36239722 -0.2130027 0.0341457 -0.06564726 -0.0052677398 0.16329552
-0.3538047 0.089633636 0.152956 0.11422371 0.1887374 -0.14907688 0.06859104 0.051320378
0.073914744 0.3686567 0.043538924 -0.09926655 -0.12094718 0.16365534 0.20434032 0.029620076
0.033535577 -0.06370403 -0.00761979 -0.010190657 0.01164919 0.0653634 0.025985682 0.10485753
0.059144203 0.019892948 -0.10234552 -0.06522142 -0.0051976233 -0.025118686 -0.025324171 0.005916812
-0.027085492 0.003441884 0.016349679 0.004838544 0.006909158 0.045200724 0.06732628 0.10032568
0.13685194 0.05573245 0.31276327 -0.12573636 -0.08050412 -0.18084954 -1.4059417 -0.019534022
-0.024415342 -0.002227059 0.033430487 0.034780506 0.0068233004 0.0009021613 0.15342382 0.021395395
-0.1090976 -0.102796786 -0.58695126 -0.15381023 -0.11484182 0.047526125 0.09140395 0.3630654
0.07099576 0.13356462 0.06710793 -0.0439574 -0.11634463 -0.15878469 -0.059364412 0.10623708
0.030360086 0.27932528 -0.07045723 -0.01339548 0.110065736 -0.15232153 0.22585393 -0.20993783
0.04014733 -0.031219587 -0.068421714 -0.20495352 0.078945234 -0.043931343 -0.09418774 0.01679909

fc1.bias f4 [64]
00000000: c401 d33d 3bc7 71bd 71e3 6fbe 099a 8abd
00000010: f26e 023e e9b8 2e3b 728e cdbd 7fa7 633d
00000020: c604 0f3e 36fe d4bc c0c6 e73d d0f7 063e
00000030: c4d0 ce3d 72c5 6a3d e43c 08bd ed8c 19be
00000040: ba34 903d 3d50 a3bc 8c12 103d 08fd acbe
00000050: 05a8 f13c 36ec 95bd fb2b 9cbd eaba fcbd
00000060: bc9d c7bb 9edc 163e 3d4a d03d d130 0cbd
00000070: c4ef 053e 5cb0 de3d b34c 8cbd 5981 16be
00000080: caf2 383e 000a 9f3d 27ec cbbd 71c5 7d3d
00000090: 0bfb f3bd e06a fc3d 2927 2f3b e974 08be
000000a0: da35 08bd c6a3 673b 9c3a 9f3b 6386 573e
000000b0: 81a5 39bd 48e1 84bd a498 9abc 86a5 8bbc
000000c0: 6124 883c 73fc ad3c 129f 06be 3eba 223d
000000d0: 3447 0a3d db35 4bbe fef0 0ebe 670d 923d
000000e0: ef9a 3f3d 5272 9cbd 386b 82be 533b 0ebe
000000f0: 8f56 9c3d c7dd 163d 9c12 5f3c 734b 593d
0.10303071 -0.05902789 -0.23426606 -0.06767661 0.12737635 0.0026660508 -0.10036935 0.05557966
0.13966665 -0.026000123 0.113172054 0.1318047 0.10098413 0.057317205 -0.033261195 -0.14995165
0.07041307 -0.019935722 0.035173938 -0.33786798 0.029499063 -0.07320444 -0.07625576 -0.123403385
-0.0060918014 0.14732596 0.1017041 -0.034226242 0.13079745 0.10873482 -0.06850567 -0.1469778
0.18061367 0.07765579 -0.09957152 0.061955873 -0.11913117 0.12325072 0.0026726222 -0.13325848
-0.03325448 0.003534542 0.0048592817 0.21047358 -0.045323852 -0.064882815 -0.018871613 -0.017046701
0.01661891 0.021238541 -0.13146618 0.039728396 0.03375931 -0.19844763 -0.13959119 0.071314625
0.046778616 -0.07638992 -0.25472426 -0.13889818 0.07633697 0.036832597 0.013615277 0.05305047

bn1.weight f4 [64]
00000000: 016f 9a3e a72d 223f d1f8 8a3f a1ff 1f3f
00000010: ee16 343f 7740 383f c27e b63e 1fb5 923e
00000020: 7ce3 1c3f 0a75 283f 6ff2 093f 44a9 a03e
00000030: 822f 9b3e 5b5d 713f e10c e13e fb6c d73e
00000040: d46b ef3e 55b0 1b3f 7524 ea3e 98c5 1a3f
00000050: 7a05 ae3e fc0b 7d3e 951e 1b3f 5215 723e
00000060: 43b4 533e 5da4 b23e e771 443f 11c4 253f
00000070: 6312 523f 1d58 0a3f e7d8 4c3f ac31 563e
00000080: 7710 2a3f 0071 dc3e ef68 f13e 32ab 963e
00000090: c6de ce3e 502c 323f 8490 ef3e fb30 a53e
000000a0: 130b 803e f9fc d23e 0e1c 103f 139b d43e
000000b0: d8c8 353f 49a4 883e aca5 823e 8790 063f
000000c0: 420d 993e e607 9a3e 79ac 103f 5f19 fb3e
000000d0: b6a9 cd3e 2a7e e23d 9672 1f3f 775d d33e
000000e0: 79a0 7a3e a554 113f 5ebc 073e cc0f bc3e
000000f0: a90d 133f fc85 7c3f 543a 823e 5233 3e3f
0.30162814 0.6335091 1.0857183 0.62499434 0.7034749 0.71973366 0.35643584 0.2865381
0.61284614 0.6580359 0.5388555 0.3137914 0.30309683 0.94283074 0.43955138 0.42075333
0.46761954 0.60815936 0.4573094 0.60457754 0.33988553 0.24711603 0.6059354 0.23640946
0.20674233 0.34891024 0.767363 0.647523 0.82059306 0.540407 0.80018467 0.20917386
0.66431373 0.43054962 0.4715037 0.29427487 0.40404338 0.69598866 0.46789944 0.32263932
0.2500845 0.41208628 0.5629281 0.41524562 0.7100959 0.2668784 0.25517023 0.5256428
0.29892927 0.3008415 0.5651317 0.49042794 0.40168542 0.1105922 0.6228422 0.41282246
0.24475278 0.5676978 0.1325545 0.36730802 0.5744272 0.98641944 0.25435126 0.7429706

bn1.bias f4 [64]
00000000: c227 6abd 9417 ce3d b2ed 0abe 4c18 b9bc
00000010: 54da 753e 0a07 2e3c 66a4 4d3e af90 fb3d
00000020: 1758 c6bd 2979 373e b14d fabd 1a23 9abd
00000030: 9718 043a a151 9dbc e250 793d 0bf1 b83d
00000040: 5ee9 9b3d c56e 3cbd b45b bebd 4c07 cd3d
00000050: 2796 003e e7ec 8cbe ca3c 4fbd 26a0 c33c
00000060: a5b9 c93c 37c1 203e 4e85 26be a6a1 afbc
00000070: 4cfe 29bd a42a 0c3d 7995 c73b 79d0 d7bd
00000080: b534 273b a422 0a3e 2433 583b 23c1 983d
00000090: b0a2 7f3b 08c0 d73b 2c4e f0bd 0137 443e
000000a0: 27cc 8f3d 8e7f 683d f83f 71bd 8f09 583d
000000b0: 1402 ad3d b4a0 743d cd2d f83d 6b21 2fbe
000000c0: 847b a63d 0e94 54bd 6999 163e 54f0 2f3e
000000d0: 9706 683d 31cf 2e3e b4e0 f1bd 7207 d43d
000000e0: 2bc0 4b3d bb6f bb3d ad03 0e3e 975b a6bd
000000f0: b187 d4bd 6144 3dbe 8620 923c 06ef f13d
-0.057166822 0.10063091 -0.13567236 -0.022594593 0.24009067 0.010621795 0.20082244 0.122834556
-0.096847706 0.17917313 -0.1222185 -0.07526226 0.00050390646 -0.019203963 0.06086815 0.0903035
0.07612871 -0.046004076 -0.09294835 0.100111574 0.12557279 -0.27524492 -0.050595082 0.023880076
0.024624655 0.15698706 -0.16261789 -0.021439385 -0.041502282 0.034220353 0.0060908166 -0.1053781
0.0025513594 0.13489777 0.0032989467 0.07458713 0.0039006881 0.006584171 -0.1173366 0.19161607
0.07021361 0.05676227 -0.058898896 0.05274349 0.08447662 0.05972357 0.12118111 -0.17102592
0.081290275 -0.05189901 0.14706959 0.17181522 0.05664691 0.17071225 -0.11810437 0.103529826
0.049743813 0.0915217 0.1386859 -0.08122938 -0.103774436 -0.18483116 0.017837774 0.11813168

bn1.running_mean f4 [64]
00000000: fa0b d23d a988 023f 45f5 ec3c 650d 923c
00000010: bc20 893e 56be 613d e5f8 a23c 574a 213e
00000020: 866b 883e ee3f 933e 9b51 083f b919 713e
00000030: 1138 133d ead1 673d 29b8 0d3e b080 303d
00000040: cf75 133f 43dd 983d 400f 823e a5b5 3e3d
00000050: 20cc 4f3f 4528 b23d ddea a83d 8db5 913d
00000060: c35c b33e c552 db3e c1a2 c33e d74b 2e3e
00000070: 0462 273e f72c 623e 32e3 7c3d f40e 083d
00000080: 5b13 a23e bffa a03e d423 763e 61c5 023e
00000090: 56d0 d03d 6524 dc3e 607a c93d 52da 733e
000000a0: e7c0 853e 0739 433e 49f9 123e e27a 483e
000000b0: 587f c53d 6c68 903e f01a f13d e87a 9c3f
000000c0: 842e 4e3e 5622 1e3e 68e2 073d 7dca c63e
000000d0: 49cf 573d 0400 0000 9108 f13c a689 0b3f
000000e0: 53e6 243e 83bb 8b3e 0400 0000 f3f7 c03c
000000f0: 7940 e93e 6cee 2c3d 8a23 683e 29de 783d
0.102561906 0.50989777 0.028925547 0.017828653 0.26782787 0.05511316 0.019894073 0.15751015
0.26644534 0.28759712 0.5324952 0.23544969 0.03594214 0.056596674 0.13839783 0.043091476
0.57601637 0.07464077 0.2540226 0.04655995 0.81170845 0.08699087 0.082479216 0.07114706
0.3503171 0.42836586 0.3821011 0.17021118 0.16345984 0.22087465 0.061740108 0.033217385
0.31655392 0.31441304 0.24037105 0.12770607 0.10195987 0.42996517 0.09837794 0.23813751
0.26123735 0.19064723 0.14352907 0.19578126 0.096434295 0.28204668 0.11772716 1.2225008
0.20134932 0.15442786 0.033174902 0.3882636 0.052687917 6e-45 0.02942303 0.5450691
0.16103487 0.27291498 6e-45 0.023555731 0.45557 0.042219564 0.22669807 0.060758743

bn1.running_var f4 [64]
00000000: 7527 2f3d 5bad 0a3e fae6 443c 4f74 443b
00000010: d5d3 893d addb 453c 72e4 953b b5ab b53d
00000020: f296 ae3d 4479 a33d 58e8 3c3e 2796 b03d
00000030: 970f ed3b 7b03 3e3c d813 4c3d 3d95 ae3c
00000040: 1f2a ed3d 0c71 d93c d379 6e3e 8903 f73c
00000050: b6f4 223e aa86 a43d a7d2 b23c 08ba da3c
00000060: aafb d23d a471 433e 8653 c43d 4a53 423d
00000070: 3d87 223d 36b7 9b3d 8098 c23c 7d4d 593c
00000080: a4ba 043e 51db bd3e 0b72 103e f84f fa3d
00000090: 6143 0f3d 8ae3 0f3e 2db6 603d 4811 f13d
000000a0: 0f94 bf3d ef30 4a3d 63c6 303d 1c00 513d
000000b0: 95f1 083d 58ba ac3d 47e6 213d c237 9e3f
000000c0: ea4f 583d c086 cc3d a3cc b83b 563e 0c3e
000000d0: 17a5 053c 0400 0000 bdd0 d63b 62d3 ff3d
000000e0: 519f 4c3d d4e5 a43d 0400 0000 0cd5 193c
000000f0: 7f28 a83d d30d ff3b fe0b 843d a6d7 193c
0.04276224 0.13542692 0.01201796 0.0029976552 0.06729857 0.012076301 0.004574352 0.08870641
0.08524884 0.07982114 0.18448007 0.08622389 0.0072345245 0.0115975095 0.049823612 0.021311397
0.115802996 0.026543163 0.2328866 0.030153053 0.15913662 0.08033498 0.021828962 0.026700035
0.10301907 0.19086319 0.09586243 0.047442712 0.039679755 0.07603304 0.023754358 0.013263104
0.12961823 0.37081388 0.14106004 0.12222284 0.034976367 0.14051643 0.054861236 0.11770874
0.09354412 0.049363073 0.043157946 0.051025495 0.033433516 0.0843398 0.03952625 1.2360766
0.052810587 0.09986639 0.005639629 0.13695654 0.008157036 6e-45 0.0065556453 0.1249149
0.049956623 0.08051649 6e-45 0.009389173 0.08210849 0.0077836304 0.064476 0.0093897935

fc2.weight f4 [64, 64]
00000000: 4f9f 0f3e 128d 113e ce1d a7bc df0b 8b3d
00000010: 5753 debc c211 82be b5bd 7ebe 2fb3 0cbd
00000020: c8a4 e83c 86f4 dfbc edc5 8bbd 8c63 013e
00000030: 5bba 7bbd 568e dd3d 1639 bb3d 3ade 623d
00000040: 86a5 79bd e0c5 563e 8baa 60bd fda7 8c3c
00000050: 0c7f bebd a2a8 6f3d 9133 173e 6ac3 d5bd
00000060: b28a a1bc e6b0 a6bd 1c47 38be 80f8 193e
00000070: 1a2b e83b 554d 5cbe 1d41 383e b226 cabc
00000080: c3c9 7f3d c3c1 2c3d 5035 1a3d 7d3b abbd
00000090: ee53 793e 2fe4 02be d3c9 b23c add6 8cbe
000000a0: e6f7 28be 2e1a 353e 9aa0 37bd 8c6f 15bd
000000b0: 6090 5f3d 7d7e 02be 6f66 cb3d 6f1c b4bc
000000c0: 32b5 21bd 7254 a7bc 9e5b 8bbd df3a 9e3b
000000d0: 35ba 99be 230f 23bd 46db 833d c1e7 81bd
000000e0: 6848 d4bd 45a1 b83d 961b 9fbc 0650 b93d
000000f0: 30bc 28be afe3 953c 5fa7 c13d fe19 3c3e
00000100: c16c 05bd b0a4 42bd 5257 a63d 7b9e b13d
00000110: b12e 92bd 5468 b1bd 2380 a2bd d546 2cbd
00000120: 3010 143e c294 eabd fb06 193e a8bf 04be
00000130: 7272 153e ab9f 9d3e cc3c e53d 2aed 0e3e
00000140: bb47 c3be 36f5 dd3d fe74 8f3d 9177 89bd
00000150: a75f 40be df8f 10bc be17 b2bb e883 f2bc
00000160: 08fc d9bd 25bf b73d 2cf3 603e 8208 8a3d
00000170: 4377 44bd 1011 d23c 7aae da3d 5c0f 4c3d
00000180: 50da 86bd 6489 b7bd d7f0 8fbd bf6e d13d
00000190: 8b21 77bc a579 b1bd 5410 5d3d 36de f23c
000001a0: ac12 703e b6b2 abbd f00a 46bd d447 f7bd
000001b0: 12a2 46bd dba9 41be 7612 dbbd 9d75 4abd
000001c0: a632 803e b49f 18be 6f71 b3bd 81ce ef3d
000001d0: 717b f7bd 15a8 7ebd ca89 043d e8c2 a2bd
000001e0: 1c71 cebd 7e19 72be b0ad 313d 3dfe 9d3d
000001f0: 0f56 1a3e 4224 843c 936d 3bbd 749c 1b3e
00000200: 63bd 57bc cbb5 afbd b1ac cc3e 07b4 4fbe
00000210: 8acf e73b f793 dcbc a2ee 9fbd 9999 5abd
00000220: 47a4 96bc b600 c5bd 73c2 22be def2 9c3d
00000230: 1e00 8cbd ba8a 4f3c 0cc3 aa3c 58b4 ad3d
00000240: 91d7 4f3e ad33 523d 6f34 0f3d b7bc a33d
00000250: bbba ba3d 341f 343e 79f9 a43c 95ea 84bc
00000260: 8e49 99bd 7ffe b6bd 26f6 a93d 4237 7ebd
00000270: 7001 c03d 858c 12be 2975 6e3d 76f0 f03d
00000280: 4d06 bc3c 5b51 98bd e938 a03d 8413 523d
00000290: aef2 bb3d 0899 99bc b5f5 a63d 597c 39be
000002a0: 17e4 87be 5585 f33d fdaa 18bd 54c5 30be
000002b0: 22b1 9c3d eb6a 66bd 3796 893c ec78 bf3c
000002c0: 8355 ec3c 3724 383c f6c5 7dbe c68e 87bd
000002d0: e785 ce3c bb7c 17be 5cfa 073d 9ed7 223e
000002e0: 36c3 b2bd 9f27 c43c 71fa e4bd dd10 713d
000002f0: 60e5 abbd bc52 3f3d 7e5c 5dbc f2fe a2bd
00000300: d231 23bd 8f4b 1ebe edb7 383d 2d58 b53c
00000310: 3e14 f33d 47ac 65be b385 093e 0da5 4abe
00000320: b073 fb3d debf 0fbe 7693 a6bd 8a3f 133e
00000330: 4f7e 523e 5cdf d73d d122 b73d 7c14 27bd
00000340: 8e2a 8abe 8428 16bc 257a 413c d647 9b3d
00000350: 8876 1f3e 4631 953d 5d87 0a3d d191 cdbd
00000360: 10e6 a7be 1312 6fbc 6a2e 5fbe 540f eebd
00000370: 5bc3 393b 65b3 82be 346f 23bb d898 203c
00000380: 7603 023d 055e 273d 3625 91bd f194 843b
00000390: b9bf 603e 1c26 b23d 9887 c7bb e2e3 acbd
000003a0: 9c8c 9abe 161f c83e f7f8 f4bb 1402 a8bd
000003b0: f283 7fbc 8449 923d d810 d4bc f920 61bd
000003c0: 672e 14be a0c9 62be ca3f 90bd 88de 4eb9
000003d0: 3ec1 e6bd e009 88be 49e3 a83d ec13 8abd
000003e0: 0582 4a3e cac7 a63d ffc3 efbd e384 0f3d
000003f0: 803d 4c3d 3eaf f43c b753 ee3c bf26 e4bc
0.14025615 0.1421397 -0.020399954 0.067893736 -0.027139349 -0.25404173 -0.24877055 -0.03435057
0.028398886 -0.027338278 -0.06824861 0.1263563 -0.06145702 0.10818164 0.09141748 0.055387713
-0.06094887 0.20973921 -0.054850142 0.017169947 -0.09301576 0.05851043 0.14765765 -0.10437663
-0.019719455 -0.081392094 -0.17995876 0.15036201 0.007085216 -0.21513875 0.17993589 -0.024676654
0.062448274 0.042176973 0.0376485 -0.08360956 0.24348423 -0.12782358 0.021824753 -0.27507535
-0.16500816 0.17685768 -0.044830896 -0.036483333 0.054581046 -0.12743564 0.09931647 -0.021986214
-0.039479442 -0.020426009 -0.06804584 0.0048287953 -0.30024877 -0.039809357 0.064383075 -0.06343032
-0.10365373 0.09015135 -0.019422334 0.090484664 -0.16478038 0.018297045 0.09455752 0.1836929
-0.03257442 -0.04752034 0.08122124 0.08672806 -0.07137812 -0.08662477 -0.079345964 -0.04205974
0.144593 -0.114541546 0.14944069 -0.12963736 0.14594439 0.3078588 0.11193237 0.13957658
-0.38140664 0.10837786 0.07004736 -0.067122586 -0.18786488 -0.008823364 -0.005434959 -0.029603913
-0.10643774 0.08972005 0.21967763 0.06739904 -0.0479653 0.025642902 0.1067781 0.049819335
-0.065846086 -0.08961752 -0.070283584 0.10226201 -0.015083681 -0.0866578 0.05397065 0.029646974
0.23444623 -0.08383696 -0.048350275 -0.12074247 -0.048494406 -0.18912451 -0.106968805 -0.04942857
0.25038642 -0.14904672 -0.0876187 0.11709309 -0.120840915 -0.062172014 0.03235797 -0.07947332
-0.10080168 -0.23642537 0.043378532 0.07714508 0.15071891 0.01613057 -0.045758795 0.15196401
-0.013167712 -0.08579596 0.39975503 -0.20283519 0.007074301 -0.026926024 -0.078091875 -0.05336914
-0.01838888 -0.09619276 -0.15894489 0.07663511 -0.0683596 0.012667352 0.020844959 0.084816635
0.20297076 0.051318813 0.034962114 0.07994979 0.09117647 0.17590028 0.02013849 -0.016225139
-0.074847326 -0.0893526 0.08298902 -0.062064417 0.09375274 -0.14311416 0.0582172 0.11764614
0.022952223 -0.07437392 0.07823355 0.051288143 0.09177147 -0.018749729 0.08152334 -0.18113841
-0.26541206 0.118906654 -0.037272442 -0.17262775 0.07650973 -0.05625431 0.01679526 0.02337309
0.028849369 0.011239103 -0.24782547 -0.06619029 0.025210334 -0.14793675 0.033197746 0.15902564
-0.0872864 0.023944674 -0.111805804 0.058853973 -0.08393359 0.04670976 -0.013510821 -0.07958783
-0.039842434 -0.15458511 0.04509728 0.022136772 0.11869095 -0.22429 0.13429908 -0.19789524
0.12277925 -0.14038035 -0.08133595 0.14379707 0.20555995 0.10540649 0.089421876 -0.04079102
-0.26985592 -0.009164933 0.011808907 0.07582061 0.1557256 0.07284789 0.0338205 -0.10037578
-0.3279271 -0.014591712 -0.2179505 -0.11624017 0.00283452 -0.25527492 -0.0024938108 0.009802066
0.03174158 0.04086115 -0.070871755 0.0040460755 0.21948136 0.08698675 -0.006089162 -0.08441903
-0.301854 0.39086217 -0.007475968 -0.08203521 -0.015595423 0.07142928 -0.025886938 -0.054963086
-0.14470826 -0.22147226 -0.07043417 -0.0001972859 -0.11267327 -0.26570034 0.08246476 -0.06742081
0.19776161 0.081435755 -0.11707305 0.03503884 0.04986334 0.029868718 0.029092653 -0.027850507

fc2.bias f4 [64]
00000000: ef67 32be 3fc3 a13d 2869 d6bd 6a47 6fbe
00000010: e782 443e 2b2f 43be 83ed f33c bf5c 6bbe
00000020: adfe 17be 062a f33d cd35 58be cd90 723a
00000030: c134 8ebe 6aba 4cbe 708c 88bd 74dc 6d3d
00000040: c1ba b4be 660b 13bd f850 eabd a784 203c
00000050: d344 0d3d 7246 83bc 5ec9 89bd 3a7a 53be
00000060: 71e2 7dbe a80b 1dbe a4f8 fdbd cac3 1bbe
00000070: d4ba cabd 5105 a23d a89a 88be d8c5 a2bd
00000080: 3a89 0bbe fd32 e93d 4848 533e 9a18 34be
00000090: 5345 5dbd c723 10be 0829 f43a 287b b83d
000000a0: eabf 64bd cf59 13be a2c7 72be d25a 763b
000000b0: 4976 ac3d be70 1ebe c7ca 1a3d ec5b 00be
000000c0: 3b02 21be 25b9 da3c 92a4 95bd 7cb0 c7bd
000000d0: ff1b 353e 4afb d1bd c943 ab3d 779b c2bd
000000e0: 919c 7fbe ae9c 553b 18b1 863d 0136 34be
000000f0: 6a34 c9bd e860 023c c2e3 2cbe b665 fe3b
-0.1742246 0.07898568 -0.10469276 -0.23367086 0.1919056 -0.19060962 0.02977634 -0.22984599
-0.14843245 0.1187325 -0.21114273 0.00092531444 -0.27774623 -0.19992986 -0.06667411 0.05807157
-0.35298732 -0.035899542 -0.11441225 0.009797252 0.034489464 -0.016024802 -0.06727861 -0.20652094
-0.24793412 -0.15336478 -0.1240094 -0.15211406 -0.09898916 0.0791117 -0.26680493 -0.07947892
-0.13626567 0.11386678 0.20633042 -0.1758751 -0.05402119 -0.14076148 0.0018627951 0.09007865
-0.055847086 -0.14389728 -0.23708966 0.0037590754 0.084209986 -0.15472695 0.03779104 -0.12535065
-0.15723507 0.026699612 -0.0730678 -0.097504586 0.17686461 -0.10253008 0.08362538 -0.09502309
-0.24962069 0.003259461 0.06576747 -0.17598726 -0.0982445 0.007957675 -0.16883758 0.0077635897

bn2.weight f4 [64]
00000000: 73f2 943f bb0e ac3e ef27 563f 31ab 213f
00000010: 451b fb3e a2a8 193f 8de6 043f bea9 db3e
00000020: 12ca 753e 35d9 003f 4df6 5a3f fc80 393f
00000030: f828 0d3e 78ed 1a3f 2566 ab3e d415 043f
00000040: 2143 5d3e 7b9d 0c3f 0bf3 0f3f ae2a 403f
00000050: fbab 3c3f bf8f 4b3f 2893 ce3e 200d 2e3f
00000060: 02b3 a93e 9c18 973e b18e 383f 3648 033f
00000070: 39e9 4f3e 6474 2e3f b0b1 7e3f 97ce 053f
00000080: d369 223f 3a84 9d3e a72f 373f 651d 893e
00000090: 324a 073f e66b 883e 2f66 3a3f ee5a 103f
000000a0: 4157 6f3f 3aa9 0d3f 6e3f 613e 5175 443f
000000b0: 07ac 3c3e 4d83 b53e f1aa 2c3f c936 e23e
000000c0: 6e42 ee3e 23ff fd3e 5f82 e23e c2fc 8b3e
000000d0: 2e6c 573f 4cb2 443f c462 ff3e 8ce6 d13e
000000e0: 86a0 d53e 3ef6 c43e f681 383f 9c26 cd3d
000000f0: e0b1 883e b98a 563e fa51 7c3e 4429 bf3e
1.163649 0.33604988 0.83654684 0.6315184 0.49044243 0.6002294 0.5191429 0.4290294
0.24002865 0.5033143 0.85532075 0.7246244 0.1378516 0.605186 0.33476368 0.5159581
0.21607639 0.54927796 0.5623023 0.75065124 0.7369992 0.79516214 0.40346646 0.6798878
0.33144385 0.29510963 0.7209273 0.5128206 0.20303811 0.6814635 0.9948988 0.52268356
0.63442725 0.30764943 0.71557087 0.2678024 0.5284759 0.2664482 0.7281217 0.5638875
0.93492514 0.55336344 0.21996853 0.7674151 0.18424998 0.35451737 0.67448336 0.44182423
0.46535057 0.49608716 0.4424009 0.27341276 0.84149444 0.7683456 0.4988004 0.40996206
0.41724032 0.38469118 0.72073305 0.1001713 0.26698208 0.20951356 0.24640647 0.3733617

bn2.bias f4 [64]
00000000: 4a9e 8d3c 8448 ea3d 90ba 0fbd 8ab2 e6bd
00000010: 4c6e 103e 37a4 0bbe 8792 4c3c 76a3 6bbd
00000020: 482f 83bd dd7c 8b3d 2b16 e13d 320f d53d
00000030: e090 dd3c cefc abbb 95ad 7cbd b29e e43d
00000040: 6ead 363d 8564 20be 578a 793c 3db6 103e
00000050: 6d89 32be 71e0 16bd 8bcb 25be e49c 953c
00000060: 34eb 3cbc 8076 fd3c f870 35be dc97 383c
00000070: 8034 19bd 74bd 673e 2d46 99bc 9e86 a23c
00000080: 9178 6cbc 9800 09be 2329 2abd b311 663d
00000090: 97a9 103e 5c83 06be 8dd1 d23d 53eb 39be
000000a0: c36c 3d3e 1617 23be 71d7 31bd 348c f0bd
000000b0: 119b b03d e30d c7bd 50f6 e0bb e6bf 1c3e
000000c0: 3d44 b53d 2da4 983c 2aff 4f3d 7fb9 453d
000000d0: 43a2 abbd 8626 863d 0dda 8b3b 3608 0ebe
000000e0: 715d adbd 197f 9b3b 613e 8e3c 29b1 ebbd
000000f0: d52b d43c 0c9e 7b3d 05d0 c1ba eaa5 ddbc
0.017287392 0.114396125 -0.03509003 -0.112645224 0.14104575 -0.13636862 0.012486107 -0.057528935
-0.064055026 0.06810925 0.10990556 0.10403289 0.02704662 -0.0052486425 -0.06168898 0.11163081
0.04459899 -0.15663345 0.015230737 0.14132018 -0.17435236 -0.036835138 -0.16190927 0.018263288
-0.011530686 0.030940294 -0.17718875 0.011266675 -0.037403584 0.22630864 -0.01871022 0.019839581
-0.014433042 -0.13379133 -0.041543137 0.056169223 0.14127193 -0.13136047 0.10293875 -0.18156175
0.1849852 -0.15926775 -0.04341835 -0.117454916 0.086233266 -0.097194456 -0.0068653002 0.15307578
0.08850906 0.018632973 0.050780453 0.048272606 -0.08380558 0.065503165 0.004267937 -0.1387032
-0.08465088 0.004745376 0.017363729 -0.115084 0.025899807 0.061430022 -0.0014786726 -0.027056653

bn2.running_mean f4 [64]
00000000: ebb8 4f3e a38c 843e 406f 313e bb5b 2e3e
00000010: f242 133f de88 603d c1fb c73d f2a3 c13d
00000020: 58b0 ae3d 57f7 2c3f 2bf4 013e 1fa5 923e
00000030: cbe2 cd3d a444 ad3d 1263 8a3e 645d d63e
00000040: 55c8 be3c 0d72 7b3e 7a3e 8e3e 38ae b73e
00000050: 060c e43e 498d 8c3e a430 f53d 43ed 083e
00000060: 6815 c93d 5134 f23d eb20 b03d bfcb 273e
00000070: 6a4b c93d 1008 133f bec9 f13d 4fc0 9c3d
00000080: 7f82 503e 046c f73e 7ce4 ba3e 7ba5 e03d
00000090: 905f 653e c8a5 0e3e ac9a 543e bfc3 c93e
000000a0: cdeb 843e a96e 833d 533e a63d 3078 9e3e
000000b0: b727 e43e 9c76 a53d be09 683e 9906 3b3e
000000c0: 1c49 423e 3933 9c3e b4df e43e 7d97 b93d
000000d0: 7ce3 d93e 8872 723e c63d a53e 1ea4 9f3d
000000e0: 0cae 9a3d ff60 8a3e c0db df3e 5e5b 963d
000000f0: 18d6 593e ae9d 933e 764c af3c 559e aa3e
0.20285384 0.25888547 0.17327595 0.1702718 0.57524025 0.054818027 0.09764815 0.09455098
0.08529729 0.6756491 0.12690799 0.28641602 0.10053023 0.08460358 0.2702871 0.41868126
0.023288885 0.24555226 0.2778204 0.35875106 0.44540423 0.27451542 0.11972168 0.13371758
0.09818536 0.11826385 0.086000286 0.16386317 0.09828837 0.5743418 0.118060574 0.076538675
0.2036228 0.48324597 0.36502445 0.10969063 0.22399735 0.13930428 0.20762128 0.39407155
0.25961152 0.06417591 0.08117356 0.3095107 0.4456155 0.080792636 0.22659966 0.18264236
0.18973202 0.3050783 0.44701922 0.09062097 0.4255637 0.23676503 0.32273692 0.07794975
0.07552728 0.27027127 0.43722343 0.07341646 0.21273077 0.28831238 0.021398764 0.33323923

bn2.running_var f4 [64]
00000000: fd0e 603e b0c7 7e3e c3d0 b63e a828 003e
00000010: d8a9 ab3e e06c 4f3d d984 963d 2f63 063e
00000020: e836 193d 20c1 f33e 1bec 393e 8bd1 973e
00000030: c40c 9d3d 9a47 463d 07bd 5e3e ee55 303e
00000040: b1ae f43b 5f1a b63d 82d0 4f3e 4f77 a03e
00000050: 3d3c 633e 0e38 673e 0fe8 3f3d 4bd0 a53d
00000060: fb8f 673d 484a 6e3d 8b08 343d 5108 683e
00000070: c735 363d 10f8 173f 2d82 1c3e e664 3e3d
00000080: 4796 143e 52bf 443e 76dc 833e f5d5 d93d
00000090: 2f77 0e3e 0953 6d3d 0bd5 183e 16bb 333e
000000a0: 8f5d dc3d 7fcc 813d 47ba 4d3d c9d9 d33d
000000b0: dfa9 b63e 24cc 0c3d 4116 403e 7c96 e73d
000000c0: 273d 033e 8218 843e c2bc 663e ef04 1e3d
000000d0: c6a7 aa3e 3b74 273e a39f f53d 7431 d63c
000000e0: 9eff 383d c2df d13d 60ef 463e 58cc f73c
000000f0: 2682 3b3e 2629 593e d3c1 dd3b 408a fe3d
0.21880718 0.24880862 0.35706148 0.12515509 0.33528018 0.05064094 0.073495574 0.13123773
0.03740588 0.4760828 0.18156473 0.29652056 0.076684505 0.04840813 0.21751796 0.1722028
0.007467114 0.08891749 0.20294383 0.31341025 0.22190948 0.22579977 0.046852168 0.08096369
0.056533795 0.05817631 0.04395346 0.22659422 0.04448488 0.5936289 0.15284033 0.046482943
0.14510451 0.19213608 0.25754136 0.10636512 0.13912652 0.057940517 0.1492502 0.17551836
0.107600324 0.06337833 0.050226476 0.103442736 0.35676476 0.03437437 0.18758489 0.113079995
0.12816297 0.25799948 0.22532943 0.038578924 0.33331126 0.16352932 0.11993339 0.026146628
0.04516565 0.102477565 0.19427252 0.030248806 0.18311366 0.21207103 0.0067674904 0.12428713

fc3.weight f4 [64, 64]
00000000: 6a07 70be afdd 283c 8a74 9c3d fe68 0a3e
00000010: 8e2a a63d 3b2d de3b 7d17 c13d 5df0 b43d
00000020: df25 ac3d 51e2 b33c 421e cabc e2d4 a63d
00000030: 4e9a 293d 5633 cdbd f012 ce3b cdf7 473e
00000040: 0de0 7ebd 88cf 45be d23f 373e ab2d 143e
00000050: d68a eebd bd7d 97bc 411a afbd 3ce0 2a3d
00000060: 1ddf 1a3e 7fd1 233c 7213 febd b80b 5ebb
00000070: d8fe 4f3e db4b 533d 92bd 423d 59d5 dcbd
00000080: 5631 acbe 4b6e fbbd aa35 e03d 2a33 a63d
00000090: 0ed5 983c 2126 5abd b5cd 8d3d 2bf7 9fbe
000000a0: 5aab 3f3d c1fa 9f3d cde1 5d3e af64 ea3d
000000b0: 6dca b93d 14f4 ac3d 67ff a03d 81f0 723e
000000c0: 82c9 913d 433c 7e3d 7668 a7bd 723d 433e
000000d0: cc8f cabd cd5b bcbc 4585 f53d f85c 1cbe
000000e0: 70ae a4bd 83c4 62bd d88d cbbc 3d97 20be
000000f0: e80f 83bd 5a17 b13d 2fff 80bd a2c6 dcbd
00000100: 2135 96be 73a4 073e e664 93bc 3d18 a3be
00000110: 221b 59bd 222d b2bd b249 a7ba 6c2b 8bba
00000120: 2f84 e0bc 4d00 033e 99d5 cb3d c39a 2f3c
00000130: 7d53 0c3d b31b 9f3c 657e 923d 796a 31bd
00000140: 9a67 383e 0817 f1bc 1775 863e 762f 083e
00000150: b7b5 f1bb 0255 df3d 32d1 0cbe 0fba 7a3d
00000160: b484 b4bc dfee d83c c56c f7bd 4578 823c
00000170: 25de 433e 10ac ddbd 0fc4 5fbd 7069 953d
00000180: a6c0 a5be 0448 8b3d 6dbc 79be 047c 183d
00000190: f8e7 b23c 4407 d9bd be8a b0bb 29a4 febc
000001a0: 6ccd 72be 4500 a23c 6ff7 183d 94e3 b0bd
000001b0: f0e7 c43d 9919 dfbd 57a5 bf3d 988e e93d
000001c0: c960 4f3c 35d0 8dbd 8d7a d6bd c51b f73d
000001d0: 8e15 9ebc 755a 33be c868 cc3d 9e09 c83d
000001e0: 168f 443c bf6f 8dbe 38ce 343d 6e09 323d
000001f0: 50cd c0bd ecfb cebd b5de abbd 04de dcbc
00000200: 2b67 9b3d 08f8 e93d 0cb4 32be 4e1d 89be
00000210: 55d3 afbc 6eae 36be 4bdf b8bd 7995 3ebe
00000220: bc30 c33c 1896 073d 1c1d 44be 5c2a b7bc
00000230: 6275 313e 3243 c33d 5d15 80be d89c 683d
00000240: 351d 20bd b97f 6abc f847 833e 8bf9 e73d
00000250: 8da4 d5bd d588 023e e17b 4ebc 4f37 ee3c
00000260: 5fe4 9e3c 6c07 4f3e e726 0c3e c22c ecbd
00000270: 5f82 253d 6af4 cd3d eeda 98be 5ede d8bd
00000280: ac04 9e3d eaee 76be 157f dfbd d90e 63bd
00000290: c138 d83d 0663 03be 7c44 ab3d 209d fbbd
000002a0: 007b 313e 768d 7abe 38cf dabd 4883 11bc
000002b0: a288 5c3e a4a4 58bb c861 8f3b e86b 333e
000002c0: 43a5 dfbd 4a55 07be e6d6 a53d f8d6 043e
000002d0: da4c 6fbe 2cb4 ae3c f29e cd3c 055b 59bd
000002e0: 4c88 d9bd 658d 7fbd 3a1c 53bd 9c87 40bc
000002f0: caf8 6d3d dde2 323d 3166 ee3d 2c86 1cbd
00000300: 807a 0ebe 0337 5b3e eee2 35be 2006 8ebe
00000310: 95ba 173d beee 38be 6e59 29be 638e 2ebd
00000320: 4679 3e3e 74b2 d33d a4e7 74bb 7aec 413d
00000330: 0d39 70bd 9182 cd3d 81f0 39bd 6556 41bd
00000340: 871b 373e 9ee4 f83c 1b92 2ebe 107c b9bd
00000350: fb55 073e 4d60 923d aed1 cdbd 6005 88bb
00000360: 307f c2bd c209 3fbc d5d9 50be daec 9c3d
00000370: 664d eabd 4c88 bdbc 7b55 f83c 1242 a13c
00000380: 0f23 3bbe 89ac 20bd deb5 febd 73b6 d2bd
00000390: eb72 213e 7f1a 1fbd 09c8 cbbd ba7b 86bd
000003a0: d8df 29be d4de 31bd d5ce beba d5fd 06be
000003b0: cdb7 873c c0f6 5c3e d7df 01bd 88f6 82be
000003c0: f7ee 94bd 93eb 333e 11a8 d43c 5e7b 9bbd
000003d0: c7da be3d 678b 9ebd afa5 55be 8cf0 193d
000003e0: c068 a4bc 7dc3 253d 14b6 343e f315 34bd
000003f0: e5f5 313d 3fee 8ebd 0dd0 bbbd 8843 3c3c
-0.23440328 0.01030676 0.076394156 0.13516614 0.081135854 0.0067802942 0.09428308 0.08834908
0.08405661 0.021958502 -0.024672631 0.08146073 0.041406922 -0.10019557 0.0062888786 0.19528122
-0.06222539 -0.19317448 0.1789544 0.14470546 -0.116475746 -0.018492574 -0.085499294 0.041717753
0.15124173 0.009998678 -0.12406053 -0.0033881497 0.20312059 0.051586013 0.04754407 -0.1078288
-0.3363139 -0.12276896 0.109477356 0.081152275 0.01865628 -0.05325902 0.06924001 -0.31243262
0.046794273 0.078114994 0.21668167 0.11444985 0.09071813 0.08444992 0.07861214 0.23724557
0.07118513 0.06206919 -0.08174221 0.19066408 -0.09890708 -0.022992993 0.1198831 -0.1526984
-0.08041084 -0.05536319 -0.02484791 -0.15682693 -0.06399518 0.08647032 -0.062986724 -0.10780074
-0.2933741 0.13246326 -0.017992448 -0.3185443 -0.05300439 -0.08700015 -0.0012763052 -0.0010617799
-0.02740678 0.12793083 0.0995285 0.01071805 0.034259308 0.019422388 0.07153014 -0.04331443
0.18008271 -0.029429927 0.26261207 0.13299355 -0.0073763984 0.10904886 -0.13751677 0.061212596
-0.022035934 0.02648109 -0.12081293 0.01592649 0.1912771 -0.10823834 -0.054630335 0.07295501
-0.32373542 0.06800845 -0.24388285 0.037227646 0.021839127 -0.10597089 -0.005387633 -0.031084137
-0.23711175 0.01977552 0.037345346 -0.08637157 0.09614551 -0.10893554 0.09357708 0.11404151
0.012657353 -0.06924478 -0.104725935 0.120658435 -0.019297387 -0.17514975 0.09980923 0.09767459
0.011997005 -0.27624318 0.044141978 0.043466024 -0.0941416 -0.10106644 -0.08392087 -0.026961334
0.07588037 0.11424261 -0.17451495 -0.2678017 -0.021463076 -0.17839977 -0.09026965 -0.18611707
0.02382695 0.033102125 -0.1915173 -0.022359066 0.17329934 0.09534301 -0.250163 0.056790203
-0.039090354 -0.014312678 0.25640845 0.113268934 -0.10431776 0.1274751 -0.012602777 0.029079108
0.019396005 0.20217675 0.13686715 -0.115319744 0.040407535 0.10056384 -0.2985453 -0.10589288
0.07715735 -0.24114576 -0.10912911 -0.05543408 0.105577 -0.12830743 0.08362672 -0.122858286
0.17332077 -0.24468026 -0.10684055 -0.008881398 0.21536496 -0.0033057118 0.00437567 0.17521632
-0.10920193 -0.13216129 0.08097629 0.12972629 -0.2336916 0.021326147 0.025100205 -0.05306532
-0.106217 -0.062390704 -0.05154059 -0.011751082 0.058098592 0.043673385 0.11640585 -0.038213894
-0.13913918 0.21407704 -0.17762348 -0.27739048 0.037043173 -0.18059823 -0.16538021 -0.04261626
0.1860095 0.103367716 -0.0037369514 0.047344662 -0.058648158 0.10034669 -0.045395378 -0.047201533
0.17881595 0.03038245 -0.17047922 -0.09056866 0.13216393 0.07147274 -0.10049759 -0.0041510314
-0.09496915 -0.011660041 -0.20395596 0.07662363 -0.11440544 -0.02313628 0.030314198 0.019684825
-0.18275093 -0.039227042 -0.12437032 -0.10288706 0.15766494 -0.038843628 -0.09950263 -0.06566568
-0.16589296 -0.043425396 -0.001455749 -0.13182767 0.016567135 0.21578503 -0.03170761 -0.25578713
-0.072721414 0.17570333 0.025959047 -0.0759189 0.09319072 -0.07741433 -0.20863985 0.03758292
-0.02006948 0.040469635 0.17647582 -0.043966245 0.043447394 -0.069790356 -0.09170542 0.01149071

fc3.bias f4 [64]
00000000: ceb1 7d3e 4f08 543e 94dc 853e a31e 893b
00000010: be3d ddbd dcc6 343d 6d90 4b3d 70fb 093e
00000020: d24e dc3a ccb0 05bc 5cf5 873e 6204 8cbc
00000030: 5b8d 69bd 83a6 1c3d 21ad 3dbc bbcc 393e
00000040: 99fc fdbc 07c2 5bbd 0fa6 fdbd 444b cc3d
00000050: 4d03 33be fcd7 d3bc 4df6 1a3e 7076 68be
00000060: 0c32 afbd bee3 aebe b608 3539 174e b9bd
00000070: 5919 6b3e b194 1c3d f59b 1abe e6db 493e
00000080: 55e7 a53d bd60 d1bd 3ce1 aa3b ca10 7d3d
00000090: 1708 a13d 972d c4bd a0da 553c 2c42 933c
000000a0: 8ae0 5fbd 1867 c4bd ee99 213d b814 c4bd
000000b0: 5bc1 80bc f6f0 0abe be1d ef3d 45af a2bd
000000c0: 360f 273e 2ce0 f4bb 7574 09be 21c7 003e
000000d0: 18e1 1f3e 915d cd3c 2dc4 37be 7be1 84bc
000000e0: 8a97 d53d 8537 c0bd c506 d93d 31bb 08be
000000f0: 013d d93d 8215 1fbd 4380 e4bd 3259 d83c
0.24774858 0.20706294 0.2614485 0.0041845604 -0.10802792 0.04413496 0.049698282 0.13474822
0.0016808158 -0.008159827 0.26554382 -0.017091934 -0.057019573 0.038244735 -0.011576922 0.18144505
-0.031004237 -0.053651836 -0.12385189 0.09975293 -0.17481728 -0.025859825 0.15133019 -0.2270143
-0.085544676 -0.34158128 0.0001726475 -0.090480976 0.22958888 0.03822774 -0.15098555 0.19712791
0.08100764 -0.102235295 0.0052148383 0.06178359 0.07862871 -0.09579008 0.013052613 0.01797589
-0.054657497 -0.09589976 0.03945344 -0.09574264 -0.0157172 -0.13568482 0.11675595 -0.07943586
0.16314396 -0.0074730124 -0.13423331 0.12575962 0.1561321 0.02506903 -0.17945929 -0.016220799
0.104292944 -0.093855895 0.10596994 -0.13352658 0.10607339 -0.03883887 -0.111572765 0.02640972

bn3.weight f4 [64]
00000000: 44b1 0d3f fb9d 963e 1e81 003f 4d7d a73e
00000010: 288e da3d c25c 6d3e af87 983d 9337 ad3d
00000020: 310c 5b3e 8358 263f 89b5 1e3f 5aa9 333f
00000030: dc40 473f 31e1 c43e d7b1 2c3e 4169 e33e
00000040: 5f3b 103e 7dfd 573e 654b ac3e de1a 2a3f
00000050: ac0d 9a3e 88a8 273e d789 0d3e fbf9 903e
00000060: 84ac e83d b508 363f c82f ce3d 20b9 363e
00000070: 27eb 4b3e 5f59 773e dfca 8f3a 57ed 6f3e
00000080: 64a3 093f 1807 413e 41fa cb3e 4357 c93e
00000090: eb5b 0b3f 13d3 993d 3282 2e3e d59e 093e
000000a0: b09b b13d 75ce f93d eb7c e83e d1c9 a63e
000000b0: 0189 6e3e 1dac ac3e 41dc 743e 1c39 6a3d
000000c0: 9371 1f3f c7b0 003f d898 713d 1407 423e
000000d0: 6ef1 f43e 1087 9d3e fb6f 113f 364c 233f
000000e0: 2b96 3a3f aca6 5d3e 1b4f b53e 3cc5 a23e
000000f0: 0d72 ba3d 0f16 ba3e 9524 013e 2696 163f
0.5534861 0.29417405 0.5019702 0.32712784 0.106716454 0.23179916 0.074477546 0.084578656
0.2139137 0.6497881 0.6199575 0.70180285 0.7783334 0.38453057 0.16864716 0.4441624
0.14085148 0.21092792 0.3365127 0.66447246 0.30088556 0.16372883 0.13822113 0.2831572
0.1136103 0.71107036 0.10067707 0.17844057 0.19913922 0.24155186 0.0010970494 0.23430382
0.5376494 0.18850362 0.39839366 0.39324388 0.5443713 0.07510962 0.17041853 0.13439496
0.08672273 0.12197582 0.45407805 0.3257585 0.2329445 0.33725062 0.23912145 0.05718337
0.62282676 0.5026974 0.058983654 0.18948013 0.47840446 0.30767107 0.56811494 0.63788164
0.7288539 0.21645612 0.35411915 0.31791103 0.09103785 0.36344954 0.12611611 0.5882286

bn3.bias f4 [64]
00000000: 050d 40bd af7f ff3d 8302 873e 99e7 493e
00000010: 9c48 a4be 3c43 b0bc 4347 453c 0b58 853e
00000020: b587 a2be 19b4 8d3e 3525 6d3e 726c 493e
00000030: 1657 84be f3b0 f03d 4908 8fbe fa11 1d3e
00000040: 57d6 87be 2397 a2bd da82 8d3c c13f 1bbd
00000050: a830 bf3d 391a 15bc 1f3c 913e f390 9bbe
00000060: 52ba 283e 4f02 163e d58b f1bc 95bf ecbd
00000070: b812 1d3e fef8 e43d a9ad c0be b5ae 103e
00000080: cba9 87bd a164 813e e35f 543e 1d49 81be
00000090: 35e9 1dbe 1eef d53e b82a acbe 3e60 903e
000000a0: efe4 b3be f09e 0abe 3bd1 85bd e147 6c3d
000000b0: 5f32 36be c99d 9abe b39a 843e 95bd d53e
000000c0: e7fa 5a3e b5ce 95be ff9c 9cbe be96 bc3d
000000d0: ce38 71be d9c0 153d 5d3d da3d cb43 b43d
000000e0: d9e7 8f3e e9c5 313d c82d e73d 4447 44be
000000f0: b4c6 a53e b11b 263e 318e e5bd a719 0c3e
-0.046887416 0.124755256 0.26369104 0.19717254 -0.32086647 -0.021516435 0.012040916 0.26043734
-0.3174416 0.27676466 0.23158725 0.19670275 -0.2584769 0.117525004 -0.2793601 0.15338889
-0.26530716 -0.07938983 0.017274309 -0.037902597 0.09335452 -0.00910049 0.2836618 -0.30384025
0.16477326 0.14649318 -0.029485622 -0.11559979 0.15339172 0.11180304 -0.37632492 0.14129145
-0.06624182 0.25272086 0.20739703 -0.25251094 -0.15420993 0.41783994 -0.33626342 0.28198427
-0.351356 -0.13537192 -0.06534048 0.057685737 -0.17792653 -0.30198506 0.25899276 0.41746202
0.21384774 -0.29259267 -0.3058853 0.09208439 -0.23556826 0.036560867 0.10656235 0.08801993
0.28106573 0.043401632 0.11288029 -0.1916781 0.3237816 0.16221501 -0.112087615 0.1368166

bn3.running_mean f4 [64]
00000000: 9f76 3a3f 3851 163f 6360 703f 3397 a73e
00000010: d29f 843e ccbf bb3e 8dfd cb3e 5741 083f
00000020: 39a4 883e f0d6 853e 307b 5d3f 83c3 a43e
00000030: b157 cb3e 5109 d33e ded8 c83e 5549 d13e
00000040: 162b 7d3e 0a1a a43e 3d01 ef3e d1f8 ab3e
00000050: a04e d93d 7b77 883e 8537 0c3f b99f 3c3e
00000060: 1518 f93e bce2 803e 1f15 343e ef1f 123e
00000070: fa70 073f e015 673e 82a8 253e 5ec0 153f
00000080: f4b8 a03e ea52 323e 013d 0c3f 66df a03e
00000090: e557 aa3e ac73 d73e b8e0 c43e 94a9 e43e
000000a0: a294 893e 7a7a bd3e 475a e73e 9ce3 303e
000000b0: 36b8 9b3e 01e6 a93e 53a5 223f 2fcc 923e
000000c0: 2713 0f3f d06e b03e 7392 5e3e 32cb aa3e
000000d0: 69a0 cf3e 1745 983e 0ba6 cf3e fcce c23e
000000e0: fcd9 153f fec1 d43e a30a 003f 31c3 1e3e
000000f0: f792 d63e 6cbe bd3e aa82 053e a2f8 073f
0.7283725 0.5871768 0.93897074 0.32732543 0.25903183 0.36669767 0.3984188 0.532247
0.26687792 0.26140547 0.86516094 0.32180414 0.3971534 0.41218045 0.39227957 0.4087626
0.24723467 0.32051116 0.46680632 0.3358827 0.106107 0.26653656 0.54772216 0.18420304
0.48651186 0.25172985 0.17586182 0.14269994 0.52906764 0.22566938 0.16177562 0.58496654
0.31391108 0.17414442 0.54780585 0.3142044 0.33270183 0.42080438 0.38452697 0.44660628
0.2687121 0.37007505 0.45186064 0.17274326 0.3041398 0.33183292 0.63533515 0.28671405
0.558886 0.34459543 0.21735553 0.3335815 0.4055207 0.2974021 0.40556368 0.38048542
0.5853574 0.41554254 0.5001623 0.15504147 0.41909 0.37059343 0.13038126 0.5311376

bn3.running_var f4 [64]
00000000: 2aa5 293f 7596 cd3e 2504 023f f5d5 1d3e
00000010: 02e3 823f 8629 133f e002 d23e 3ae2 ba3e
00000020: 2c85 b63e 8b3a 363f f844 e83e b1f4 9f3f
00000030: df19 863f 822c 033f ae78 463e 116a 713e
00000040: 760b b33e ea59 043e a319 073f 4607 4a3f
00000050: ff6c 933d f874 e03d 0527 bb3e 7374 143f
00000060: f6ae d43e 73ae 913f c1f7 8f3d e639 663d
00000070: a59c c83f f6b6 213e 78c5 823d 79bc 0f3f
00000080: 94ae 953e 589a 9e3e 5c85 d13e 74b5 223f
00000090: 75d4 be3e 14b0 8d3e b4d6 253f 327a cf3e
000000a0: 903f 7f3f 3ee0 f23d a7b6 613e db0f bb3d
000000b0: a9f4 ad3d f7ed b73f 6fde b13e e13a f73d
000000c0: 6cca df3e 0a0b a53e 1c8a ee3d 999d 903f
000000d0: 9ca6 6d3e d593 b03e 023b cf3e 5f91 633e
000000e0: 87bc 863f 2929 af3e 60bd b23e fc9e 663d
000000f0: f0cb 5a3e ced0 5b3e 7d2d 1a3d 2bc1 b83e
0.66267645 0.40153852 0.50787574 0.1541365 1.0225527 0.57485235 0.41017818 0.36500722
0.35648477 0.7118308 0.4536512 1.2496549 1.0476645 0.5123979 0.19381973 0.23575617
0.34969682 0.12924924 0.52773494 0.7891735 0.07198524 0.1095981 0.36553207 0.5799019
0.41539735 1.1381363 0.07029677 0.05620756 1.5672804 0.1579245 0.063853204 0.5614696
0.29234755 0.3097713 0.40922058 0.63558125 0.37271467 0.276734 0.64780736 0.40522915
0.99706364 0.11859177 0.22042333 0.091338836 0.08493931 1.4369496 0.34740016 0.12071777
0.43709123 0.32234985 0.11647436 1.1298095 0.23208088 0.34487787 0.40474707 0.22223423
1.0526284 0.3421109 0.34910107 0.056303963 0.21366858 0.21466371 0.037641037 0.36084875

fc4.weight f4 [4, 64]
00000000: 3a02 2d3d 568f f03d e4cb 683d b0bb 903d
00000010: 137a afbe 137d 96bd ed16 20bc 683b 243e
00000020: 1220 58be 1b2c a13d 9f16 a23d 202f b93d
00000030: 30a9 87bd a7cd 863c 0864 fbbd 9edc 54bd
00000040: 5cd2 2dbe a8b3 a6bc 896b 6abc 2e7e 393b
00000050: 3201 8a3d fd78 58bd 6c97 bc3d 34f9 5dbe
00000060: f19e 1a3e f7cc b63d 05be 6abd f8df debc
00000070: f3c9 2cbb 5da1 b6ba a5df 0bbe 29f7 9dbb
00000080: 468e 68bd 8886 203e 6099 ab3d 1559 86bd
00000090: 1a7d 5cbc 850b 513e 9b72 13be 5397 423e
000000a0: 9fc1 32be 77fd 3dbd 1653 9cbd 7ae1 e13c
000000b0: bba0 b3bc 4362 afbd 02a1 8e3d 6510 973e
000000c0: 5352 bf3c 18f5 26bd 4dd2 56be 0b23 073b
000000d0: 3b4d 39bd b6ec 7abc f59b b23b ac12 2a3d
000000e0: d210 743d 7f8f dc3c da3f 963c 34b3 77bd
000000f0: 0cfb 6f3e f756 c73c d941 7abd 8be8 a1bc
00000100: e166 943c 2690 633d 8010 4e3d df77 b13d
00000110: 3955 3bbe 496f afbc ceda 66bc 4dff 5c3e
00000120: a2c8 10be 5edd 2f3d d27e 723c 7e96 763d
00000130: 182a a9bd 453a 7a3d 218d e5bd a1a5 333c
00000140: bf71 22be e9e0 b7bb 33ad 173c e57e 51bd
00000150: be42 363c 7a4f d7bd fb5b 2c3e bf11 74bd
00000160: 0f77 313e fae6 353b 0d1a d8bc 9f59 a43b
00000170: 4ce7 cc3d 7974 c63c b570 71be aa0f 233d
00000180: 687a 703b b446 983d 09cb a63d dc0d 2abd
00000190: 9f6b 6dbd a190 ad3e 4a09 20be cf1a 4c3e
000001a0: db1e 77be 70d9 45bd 1844 74bb a84d a53c
000001b0: 82e6 f3bc 3880 30bd a2ea 6f3d dedf 7f3e
000001c0: 3e0c 1d3d d136 bd3b d69d 31be a350 b23c
000001d0: 3b2d b0bc c316 023d e6a8 483d 711f c93c
000001e0: 2eba 953d e25b ce3b da8d 493d 049d e43b
000001f0: 7548 813e 54c2 643d b88d 5bbc b041 933c
00000200: a356 1cbc 9a07 d13d a813 803d 238d 7d3d
00000210: 4cc5 f5bd 1d0a 5fbd 7137 833c bad0 fd3d
00000220: 00d1 26be 7681 5f3d 4316 963d d0ac 8cbc
00000230: f83b 3b3a ad8d 4c3d c6cd acbd 757a 143d
00000240: 104f ffbd 6b31 52bc 9a80 a23b a710 e73c
00000250: 786b 0f3d 7255 273d eb93 063e 80d1 dbbd
00000260: 9855 273d ea14 b1bc 7560 76bc e3a7 51bd
00000270: 3cd1 e63d 4763 e3b9 cb42 aabe 6441 5c3d
00000280: 4ff1 b03b 66eb bd3d 9a4d ce3d ed96 3ebd
00000290: ae4c 1abb 7bf6 a33e 7231 0ebe 7dc1 b43d
000002a0: 2e85 4dbe dd5d 18bd 90ed 5fbb 3b83 623d
000002b0: ff1d ddbd 6770 8abd d9d1 af3d c77a c83e
000002c0: fe34 843b 04c3 bebd d61e 1bbe a4d1 563c
000002d0: e3c1 8fbd efad 40bd 9ca4 a33d e141 b63c
000002e0: 430d 953d a422 b2bc c18b 823d 81d9 63bd
000002f0: b185 1d3e f28a c83c cdf8 80bc e2f3 233d
00000300: ff33 f13c 0bd0 b53c 66bd 853d d58d 6a3d
00000310: 81ac 88be a8e4 36bd 23d7 943c 3952 d43d
00000320: 0182 37be a00c 4a3d 64c8 9c3d b47c a63c
00000330: d051 14bd badd d8bc 5190 fdbd bc1e 503d
00000340: a2de f5bd 8ba2 c03b 7334 9e3c 3160 0dbc
00000350: 2a8d fa3c 9bd3 43ba bc05 1a3e eb2c 1abe
00000360: f15e 6c3e 9592 113d 47a1 c33d 18d7 0bbd
00000370: 043a 853c d54e 5a3d cc0e 92be 2c56 a23d
00000380: ecaa 9cbc 5b05 7f3d af56 313d cace 75bb
00000390: 1935 54bd 296d 9b3e 72d9 cbbd 80f4 873e
000003a0: 3b58 53be 5945 2dbe fd7b 8abd 51b0 53bc
000003b0: 66cb dcbb 6ebb b5bd acdb e53d 4e88 a93e
000003c0: a195 bf3b 1ab7 c2bd 45d6 8cbe 0d03 bc3c
000003d0: 4377 1cbd 4af6 3d3b 1eba 2d3c c6b6 2d3b
000003e0: 2761 a23d 51de a93d 3f26 37bc 033c 0ebd
000003f0: 44c4 343e 436f 983d 23a4 2bbe e525 f73c
0.04223845 0.11746089 0.05683507 0.070670485 -0.34272823 -0.07348075 -0.009771091 0.16038287
-0.21105984 0.078697406 0.07914471 0.090421915 -0.06624067 0.016455485 -0.12274939 -0.05196821
-0.16974777 -0.020349339 -0.014307865 0.0028303969 0.06738509 -0.05284976 0.09208569 -0.21677095
0.15099694 0.08925813 -0.057310123 -0.027206406 -0.0026365488 -0.0013933588 -0.13659532 -0.0048207236
-0.056776308 0.1567632 0.08378863 -0.0655996 -0.013457561 0.2041455 -0.14399187 0.19003038
-0.17456673 -0.0463843 -0.07633035 0.027573336 -0.021927228 -0.08563664 0.069643036 0.29504696
0.023354685 -0.040761083 -0.20978661 0.0020620252 -0.04523967 -0.015315225 0.0054507204 0.041521713
0.059586354 0.026923893 0.018340994 -0.060473636 0.2343561 0.02433346 -0.061097953 -0.019764205
0.018115463 0.055557393 0.050308704 0.08665442 -0.18294229 -0.02141537 -0.014090253 0.21581765
-0.14139035 0.04293572 0.014800744 0.060202114 -0.08259982 0.061090726 -0.11208559 0.010964782
-0.15863703 -0.005611528 0.0092576025 -0.051146407 0.011124311 -0.10513206 0.16831963 -0.059587236
0.17330573 0.002775608 -0.02637961 0.0050155665 0.10005054 0.02422546 -0.2357815 0.03980986
0.0036694054 0.074353606 0.08144195 -0.041517124 -0.057963964 0.33899406 -0.15628543 0.19932102
-0.24132864 -0.048303068 -0.0037272032 0.020178631 -0.029773 -0.04309103 0.058573373 0.24987742
0.038341753 0.005774357 -0.17345366 0.021766966 -0.021505943 0.03175999 0.0489892 0.024551125
0.073109016 0.0062975744 0.049207546 0.0069767255 0.25250593 0.05584939 -0.013400488 0.017975658
-0.00954214 0.10206528 0.06253749 0.061902177 -0.12000522 -0.054453004 0.016017647 0.12393327
-0.16290665 0.054566823 0.07328465 -0.017172247 0.000714242 0.0499398 -0.08437686 0.036249597
-0.12466252 -0.012829165 0.004959178 0.028206183 0.0350146 0.04085297 0.13142364 -0.10733318
0.040853113 -0.021616418 -0.015037646 -0.0511855 0.11270377 -0.0004337078 -0.33254084 0.0537733
0.00539986 0.09273414 0.10073395 -0.046530653 -0.002354424 0.32023987 -0.1388605 0.088259675
-0.20070335 -0.03719889 -0.0034168698 0.055300932 -0.10796737 -0.0675972 0.08584947 0.39156172
0.0040346375 -0.0931454 -0.15148482 0.013111506 -0.07019403 -0.047040876 0.07990381 0.02224821
0.0727792 -0.021745034 0.06374312 -0.05562735 0.1538303 0.024480317 -0.015743637 0.040027507
0.029443739 0.02219393 0.065302655 0.057264168 -0.2669411 -0.044651657 0.018168991 0.10367245
-0.17920686 0.049328446 0.07655409 0.020323135 -0.036210835 -0.026472915 -0.12381042 0.05081056
-0.120053545 0.0058787516 0.01931212 -0.008628891 0.03058489 -0.00074701913 0.1504125 -0.15056197
0.23083092 0.035540182 0.095522456 -0.034140676 0.016263016 0.053297836 -0.28526914 0.07926592
-0.01912447 0.062260967 0.04329556 -0.003750729 -0.05180845 0.3035672 -0.09953584 0.26553726
-0.20639126 -0.16920985 -0.0676193 -0.012920455 -0.006738114 -0.0887364 0.1122354 0.33111805
0.0058466946 -0.0950758 -0.27507225 0.022950673 -0.038199674 0.002898591 0.010603456 0.0026506647
0.079286866 0.082943566 -0.011178552 -0.0347252 0.17652994 0.074430965 -0.16761832 0.030169437

fc4.bias f4 [4]
00000000: 6d89 a33e 4dea 9b3e 6456 9e3e c728 3b3e
0.31940785 0.30452195 0.30925286 0.18277274
