notebook/checkpoint.pth (torch_old, 10698 bytes, 6 tensors)

model.0.weight f4 [32, 37]
000000 c5 08 be 3d 71 12 16 be 65 f4 44 be f6 68 2c be
       0.092790164 -0.14655472 -0.19233854 -0.16836914
000010 65 6f 2b bd 4e bb 30 3e 42 9f ae bd 49 aa f9 bc
       -0.04185428 0.17258951 -0.0852647 -0.030476706
000020 fc 02 4f bd 5d a0 ac 3c 42 1a 64 bc 27 41 59 be
       -0.050539955 0.02107256 -0.013922276 -0.2121626
000030 2a 13 2b be 52 d9 04 be fc 42 c8 bd 82 d0 81 3d
       -0.1670653 -0.12973526 -0.09778401 0.06338598
000040 e0 bf 5f 3d 4f ee e5 3c 74 1e ea be f5 44 0e 3d
       0.054626346 0.028067736 -0.4572636 0.03473373
000050 de 2d e7 3d 43 84 22 bd 9e 4b 28 bd b1 f9 e9 3d
       0.11288045 -0.039676916 -0.04108774 0.11424578
000060 d6 ed a3 be 44 52 a1 bd c3 c5 51 3e 74 f6 b5 be
       -0.32017392 -0.07877019 0.20485596 -0.3553959
000070 9e 8b d8 3d 3f 02 69 3d 43 6f 1e be d2 95 5d 3e
       0.10573505 0.056886908 -0.1547213 0.21639183
000080 bf 11 4b bd 8d 5d 5a be 5f 12 00 3e 3e 38 15 be
       -0.04957747 -0.2132475 0.12507008 -0.14572236
000090 d1 cb 12 bd dd 08 c9 3d 35 42 20 3b d1 49 87 3d
       -0.035838906 0.09816144 0.0024453525 0.06605876
0000a0 8a 53 84 3d 0d 80 b6 bd 1b 5b 30 bd ff 58 53 be
       0.06461246 -0.089111425 -0.043055635 -0.20639418
0000b0 38 a5 7b 3d f5 66 3e 3e 2f ff 0c 3e 95 f9 d4 3d
       0.06143686 0.18593962 0.1376922 0.103991665
0000c0 e7 6d 8e bd ea 03 a8 3c 5b 7b 12 3e bb 9d ea 3c
       -0.06954556 0.020509679 0.14304869 0.028639665
0000d0 a7 9f 96 3e bd 3e 84 be 65 e0 99 be 46 aa bd be
       0.2941868 -0.25829116 -0.30054012 -0.3704397
0000e0 57 4f a3 bf 4e 45 fa bd 36 c0 25 3c b9 81 f7 bd
       -1.2758588 -0.1222025 0.010116627 -0.120852895
0000f0 55 ec 18 be 73 ce 51 3d 5e c4 0d bc 35 02 1c bd
       -0.14933904 0.051222276 -0.008652775 -0.038088042
000100 6f 23 3b 3c 6f 4b 3a 3e 3d 02 8d 3e 03 da 48 3d
       0.011422022 0.18192838 0.2754077 0.049036037
000110 26 f1 20 3e 6c 24 68 3d 70 50 9a bb 10 7e 21 bd
       0.15716991 0.05667536 -0.004709296 -0.039426863
000120 57 98 1b 3d 5f 76 f3 3c 10 97 88 3e 0d 87 71 3d
       0.03798708 0.02971953 0.26677752 0.058966685
000130 8a 43 89 3d ca 32 52 3d 3a 67 4e bc 0f fa 63 bd
       0.06702335 0.051317967 -0.012597853 -0.055658396
000140 d4 2a 7d 3d 07 83 30 3e 95 35 1e 3e 7b 32 37 3e
       0.061808422 0.17237483 0.15450127 0.1789035
000150 94 6d 78 3d 04 3b a0 3c 48 7c d1 bc 0d 1b 0b 3d
       0.060651377 0.01955939 -0.025571957 0.033961345
000160 1e 60 ac 3c 9d f7 37 bd bf e0 15 3d f9 88 3d 3e
       0.021041926 -0.044913877 0.036591288 0.18509282
000170 a2 8c ce 3e 04 13 69 3f d0 88 a9 bc 74 04 38 3c
       0.4034167 0.9104464 -0.02069512 0.01123153
000180 73 6f 3f 3c 83 25 06 3d 43 c0 37 3c 38 29 3c 3e
       0.011684286 0.032750618 0.011215272 0.18375099
000190 e6 62 90 3d b8 bd 1d 3d ab db 17 3c 80 0b ee bd
       0.070501134 0.038511008 0.0092686815 -0.11623287
0001a0 29 f6 33 be fb 5b 7c 3c fa 9b 20 bd 2b 96 b4 bd
       -0.17574371 0.015402789 -0.03921125 -0.08817705
0001b0 71 89 ee 3d 37 82 0e 3d 1d 3b 71 3b 91 ea 05 3e
       0.116473086 0.03479215 0.0036808916 0.13077761
0001c0 43 6a 0e 3e b5 65 f1 3d b5 f2 cd 3d b2 95 02 bd
       0.13907723 0.11786977 0.10056058 -0.03188104
0001d0 4a f6 c6 3e 5d 9b 6e bf df ea 0d bf b5 71 f2 be
       0.3885978 -0.93205816 -0.5543651 -0.47352377
0001e0 7c ac 0c c0 55 f0 49 3d ad 0e 8c 3d 35 db 8b 3d
       -2.1980276 0.049301464 0.06838737 0.0682892
0001f0 06 d5 56 3c a7 da 20 bd cc 5f 99 3b e3 4e 9d bd
       0.013112312 -0.039271023 0.0046806093 -0.07681062
000200 a0 96 00 bd 54 93 f4 bc 8b 15 e3 bc 55 84 be 3d
       -0.031393647 -0.029855408 -0.027720233 0.09302584
000210 24 e0 27 3d 07 46 9f 3d 3a c5 a7 3d 70 c2 66 bc
       0.04098524 0.077770285 0.08191915 -0.014084443
000220 44 d9 09 bc 4e 9d 69 3d 3e ee 7f 3d 6b d3 a7 3d
       -0.008413617 0.057034783 0.062483065 0.08194622
000230 ae 3b bc 3d 55 05 aa 3d 96 e5 3c 3e 99 4a 1b 3e
       0.091910705 0.08301798 0.18446955 0.15165175
000240 39 b2 e2 3d 37 ea 93 bc 0b f0 b0 3c 03 cc 09 3b
       0.110691495 -0.018056018 0.021598836 0.0021026141
000250 42 72 51 bd 74 63 f9 bd 21 c7 ca b9 7b 30 92 be
       -0.051134355 -0.12177172 -0.00038676805 -0.28552613
000260 49 c3 e5 bd e0 15 52 be 39 c8 15 3e 47 77 2f 3e
       -0.11218888 -0.20516157 0.1462716 0.17135344
000270 5c e4 c8 bd d6 be 82 bf 79 e8 35 bc 46 ce f6 bd
       -0.09809181 -1.0214489 -0.011102789 -0.12051062
000280 b3 53 ca 3d af 9f 0c be ea 42 c7 bd a6 db 21 3d
       0.098792456 -0.1373279 -0.0972956 0.039516114
000290 fc 14 1a be 12 af af 3c 8b fb 77 be 93 d9 8f be
       -0.15047067 0.021445785 -0.2421705 -0.28095683
0002a0 a7 73 f8 bd ca 16 14 bd 90 7d 59 3e d5 eb 12 bd
       -0.12131434 -0.036154546 0.21239305 -0.03586944
0002b0 2e ae e4 3a ec 1b 44 be c4 01 3d 3d 86 11 dc 3e
       0.0017446929 -0.19151276 0.046144262 0.4298212
0002c0 91 f7 0f bf 51 96 02 c0 98 38 6b bd 0d 06 e7 3d
       -0.5623713 -2.0404246 -0.05742702 0.11280451
0002d0 04 83 33 3e cc db 5c be ae cc ce be 56 e6 a0 3d
       0.17530447 -0.21568221 -0.40390533 0.07856433
0002e0 fa 54 98 3b ce a9 17 bc 8b a9 af bd 03 17 74 3d
       0.004648802 -0.009256793 -0.0857726 0.05959226
0002f0 eb 09 55 3d f8 04 31 3e 48 60 85 3e 65 93 51 3e
       0.05201141 0.17287052 0.2605002 0.20466383
000300 96 2a 57 be c2 9d 1e be a6 ef 11 bf 0c 0a 8e 3c
       -0.21012339 -0.15489867 -0.570063 0.017338775
000310 fc 53 82 bd 4d d7 45 bd 58 e3 a3 bd 85 25 af 3d
       -0.06363675 -0.04830103 -0.08002347 0.08552078
000320 a1 ae 2f bd bd 4f 56 3d 7f b2 d8 b8 37 5c 83 3d
       -0.04289115 0.052322138 -0.0001033293 0.06414073
000330 75 35 54 3d ba 6d 11 3e d9 50 3f 3d eb 0a 8b bc
       0.051808793 0.14202014 0.04670796 -0.01697298
000340 cd f6 9d 3d ac 9c c1 3c c9 c6 e3 bd fa da 29 3e
       0.07713089 0.023634277 -0.111219 0.16587439
000350 a8 70 01 3d 8c ee 55 bd 17 f4 9c 3a ca 27 b3 3e
       0.031601578 -0.05222945 0.00119746 0.34991294
000360 11 17 56 bf 20 cf 77 be 9d d2 5a be 8e 2f b4 bf
       -0.83628947 -0.24200106 -0.21369405 -1.4077013
000370 f4 6b 96 b9 11 0f f4 3a ae 38 5d 3c 99 69 21 3c
       -0.0002869066 0.0018620213 0.013502283 0.009851837
000380 90 bd 8c 3b bb 32 e5 3c 51 c1 a8 3c 68 f5 3a bd
       0.0042950585 0.027978292 0.020599993 -0.045644194
000390 a0 cd a4 bc c7 e5 11 3c 3b c9 42 3d 9c b9 93 3d
       -0.02011758 0.008904881 0.04755519 0.072131366
0003a0 6f 8c c9 3d ef a4 12 3e 13 ad 0f 3e 2c dd 05 3e
       0.09841239 0.1432073 0.14030866 0.13072652
0003b0 bf 03 b4 3c eb 72 eb bc e3 94 eb bb c0 b6 d1 ba
       0.021974443 -0.02874132 -0.0071893795 -0.0015999898
0003c0 72 3b 0f bd e1 dc 03 3c 04 99 08 bb 53 99 e6 3c
       -0.0349688 0.008048267 -0.0020843158 0.028149283
0003d0 f9 dd 67 3d 3f e6 a2 3d 00 2a bf 3d af 08 24 bd
       0.056608174 0.07954072 0.09334183 -0.040047344
0003e0 db b0 49 bd 3a 46 2c bc e4 f5 4d 3d e3 e0 98 3d
       -0.04924093 -0.01051479 0.050283328 0.07464769
0003f0 bc 8b b6 3e 36 3a bf be 1c dd c5 be 3b 74 e5 be
       0.35653484 -0.373491 -0.38645256 -0.4481524

model.0.bias f4 [32]
000000 22 90 39 be 82 1f 02 be 5e be 33 3d 37 b7 63 3e
       -0.18121389 -0.12707332 0.04388272 0.2223786
000010 94 f5 83 3e f2 3d 5a bd 7f d8 b0 3c 25 ec 83 3e
       0.257733 -0.053281732 0.021587608 0.257661
000020 91 ce b8 3d 83 03 94 3e ea 6c 1b bd 26 c4 d1 3b
       0.090237744 0.2890893 -0.037945665 0.0064015565
000030 62 22 6b 3d 3b b0 99 bc 57 3e 06 bd 28 ef db bc
       0.057405837 -0.018760791 -0.032774296 -0.026847437
000040 2f 05 c4 3d 4f c7 3b 3e 48 16 dd 3d 98 c2 4b be
       0.09571301 0.18337749 0.107952654 -0.1989845
000050 0b fa 5f be 12 a7 ba bd 45 ca fe bd 3d f2 37 3e
       -0.21872728 -0.091138974 -0.124409236 0.179635
000060 1e d3 b6 bc 0c a9 17 3c 8b bb 45 3b d9 4e 4e 3c
       -0.022317465 0.0092566125 0.0030171599 0.012592041
000070 00 f7 14 3e d3 80 08 be 85 b2 5e be 32 37 01 be
       0.14547348 -0.13330393 -0.21747787 -0.12618712

model.2.weight f4 [32, 32]
000000 1e a4 45 3d b1 8c 26 3e 01 f0 16 be 2e e7 26 3d
       0.048252217 0.16264607 -0.14739992 0.040747814
000010 0c db 3d 3e da fa d3 3c d8 2a b7 be 2a 9c 05 be
       0.18540591 0.025876451 -0.35774875 -0.13047853
000020 89 8e 27 3e a4 43 cc 3d 95 e1 e7 be e5 f0 3f be
       0.16362967 0.09973839 -0.45289293 -0.18744238
000030 b2 ab c1 3c c2 c7 90 bd ea 75 00 be 44 54 bc 3e
       0.023641441 -0.07069351 -0.1254498 0.3678304
000040 82 18 5d bd 71 38 2d bd 62 30 3a bc 29 7f 21 be
       -0.05397845 -0.042290155 -0.011364074 -0.15771164
000050 c3 92 a9 be ce 59 84 3c 7b cc 2c 3f fa ee 1a be
       -0.33119783 0.016156103 0.6749951 -0.15130225
000060 8d 92 4c be 2b a7 42 be aa 68 1a 3e 67 cf 8a be
       -0.1997778 -0.19009082 0.15078989 -0.2711136
000070 fc 54 07 bd b3 0e cc bd e6 40 25 be c9 71 30 3c
       -0.03304003 -0.09963741 -0.16138038 0.010769316
000080 3b df f3 3d 36 d1 28 be be 8c 03 3e 85 b8 af be
       0.11907812 -0.16486058 0.12846658 -0.34320465
000090 2c 84 d8 3d 34 22 f5 be 75 5d 9a 3c ca 37 a0 3d
       0.10572085 -0.47877657 0.018843392 0.07823141
0000a0 3f ed e7 3d 64 02 cb bd d5 36 7e 3e 1e a0 ca 3e
       0.11324548 -0.09912565 0.24825604 0.39575285
0000b0 61 fc 6a 3d b2 cb b3 3a d7 24 cb bd b7 27 26 bc
       0.057369594 0.0013717322 -0.09919136 -0.010141305
0000c0 64 21 bc bd f7 46 84 be a2 68 ce bc e9 d2 5a 3d
       -0.09186056 -0.25835392 -0.025196377 0.053423796
0000d0 cb c4 d6 bc ca ba db 3d ad 8a 8a bd 8f 09 5f 3e
       -0.026216885 0.107289866 -0.067647316 0.2178099
0000e0 da 8a ab be 72 a7 39 be 4a a1 66 be 1f a3 e8 3e
       -0.33504373 -0.18130282 -0.22522464 0.45436952
0000f0 66 12 bb 3d 37 ab e4 3e ec d1 73 bc b9 79 49 bd
       0.091343686 0.44661877 -0.014881592 -0.04918835
000100 7f d7 28 be 36 10 3a bd c8 42 b0 3d 43 4c 17 3e
       -0.16488455 -0.045425616 0.086064875 0.14775185
000110 06 87 91 bc 98 34 42 be dc 99 01 be ff 4c 22 3e
       -0.01776458 -0.18965375 -0.12656349 0.15849684
000120 e1 d2 2c 3e 82 a5 cd 3c bf 3c 8f 3e 88 b1 db be
       0.16877319 0.025103334 0.27976033 -0.42908883
000130 6c b3 69 bd 34 33 7c 3d 34 0f e4 3d ad 08 d0 bd
       -0.057055876 0.06157227 0.11135712 -0.10157905
000140 9d ae b2 3d 3e cb 99 be 5f 43 eb 3d f1 16 f4 be
       0.08724711 -0.30037874 0.114874594 -0.47673753
000150 32 d8 b9 3b 2a 5c 0c be d0 5c 44 3d dd cd 88 3e
       0.0056715244 -0.13707033 0.047940075 0.2671956
000160 97 2b 31 be 1f a5 ab be 7d 4e c3 bd 25 90 80 be
       -0.17301784 -0.33524415 -0.09536455 -0.25109974
000170 d4 6d 84 be 67 94 18 be 9b e7 8a be c8 ef 04 be
       -0.25865042 -0.14900361 -0.27129826 -0.12982094
000180 9b 84 c1 3b 1b e7 0f bc 43 db 93 bb 02 e5 c6 3e
       0.0059057004 -0.008783127 -0.004512222 0.38846594
000190 fb 98 8b be e6 f0 e4 be cf 0d ab be 18 76 64 bd
       -0.27265152 -0.4471504 -0.33408973 -0.055776685
0001a0 b7 15 17 be 03 e0 29 3d e0 e6 9a be c0 c9 c8 be
       -0.14754377 0.0414734 -0.3025427 -0.39216423
0001b0 00 7f 6b bd 19 49 e7 3d c0 c7 12 bd 23 73 e6 bd
       -0.057494164 0.11293239 -0.035835028 -0.11252429
0001c0 b5 39 0f 3d e3 9c a7 bd a8 68 9e bd 5a 73 b5 bc
       0.034967143 -0.08184221 -0.07734805 -0.02214973
0001d0 9a 8c dd 3d 96 c7 af bd 58 b3 d1 be 63 4a 06 be
       0.10817833 -0.0858299 -0.4095714 -0.13114314
0001e0 0b 07 0e 3e 10 a3 e7 bb c0 a5 87 be 5b 3e 97 be
       0.13869874 -0.007068999 -0.26493645 -0.2953976
0001f0 52 e9 6a 3d 4f c9 4b be 0b 66 3b 3e 2b bb 37 3e
       0.057351418 -0.19901012 0.18300645 0.17942493
000200 92 cc 83 3c 6a a9 56 bd 41 69 1a 3e 6c 43 57 3d
       0.016088758 -0.05240766 0.15079214 0.052554533
000210 90 06 74 bd 0d 88 1b 3e 59 19 7a 3e b2 dd 67 3e
       -0.05957657 0.15188618 0.24423732 0.22643164
000220 72 12 68 3e 84 5b 85 3e 8f 20 ae 3d 9c e5 a7 3e
       0.22663286 0.26046383 0.08502304 0.32792366
000230 1e ce 01 3d 50 3a 6f bd d5 aa 20 3e fc 1a d7 3d
       0.03169071 -0.05840522 0.15690167 0.10503194
000240 10 f9 41 3e c3 f8 3b 3e 70 1f 07 3c 2d d0 b4 bd
       0.18942666 0.18356614 0.008247241 -0.08828769
000250 aa 90 14 bd 79 eb 4e 3e 1a 62 00 3f 71 bb a0 3b
       -0.036270775 0.20207013 0.5014969 0.0049051573
000260 77 77 1d be db 58 b8 3e c4 85 75 3e ae 95 30 3e
       -0.15377603 0.3600529 0.23976809 0.17244598
000270 f7 b2 75 bd 08 c4 20 3e 80 84 31 bd df fc 3e 3e
       -0.059985127 0.1569978 -0.043339252 0.1865115
000280 92 d7 ba 3d 47 ae 99 3c d3 49 a2 3c 2c cd cb be
       0.09123148 0.01875986 0.019810593 -0.3980497
000290 e9 fe 43 3e f3 27 90 be 2f ef 30 bf 1f b3 87 3c
       0.1914021 -0.2815548 -0.69114965 0.016564904
0002a0 0e 07 85 3d 34 b5 9e 3d 00 c4 c4 bd d3 e3 1c bf
       0.06495486 0.077494055 -0.096076965 -0.6128513
0002b0 b6 ef 9f bc 92 d4 8c 3d aa 13 53 3d 48 2b 66 bd
       -0.019523483 0.06876482 0.051532425 -0.05619362
0002c0 75 a3 d7 3d d4 85 5a 3d 5b 59 19 3d a0 34 3e be
       0.10529224 0.053350285 0.03743873 -0.18574762
0002d0 a3 a8 86 3d 55 d5 77 bc 03 a8 e5 bd 69 b9 44 3d
       0.06575134 -0.015126546 -0.11213686 0.048028383
0002e0 85 c8 98 be 3f 94 b3 be 98 6a 0f bf 69 d5 3d bf
       -0.29840484 -0.3507404 -0.56022024 -0.74153763
0002f0 e8 18 d8 3d 2d cc 26 bf 63 e2 da 3d 12 33 8b bd
       0.105516255 -0.651553 0.10687711 -0.0679685
000300 0d 35 87 3d 7f e6 dd bd bf 8a c0 3d d0 1f 2e bd
       0.066019155 -0.10834979 0.09401464 -0.042510808
000310 c8 20 f1 3d f9 f0 18 3e 0c de 1e 3e c5 48 76 bb
       0.11773831 0.14935674 0.15514392 -0.0037579995
000320 7d 81 b6 3d 31 15 59 be d3 18 e7 bd e9 a5 77 3c
       0.08911417 -0.2119949 -0.11284032 0.01511524
000330 f2 40 02 bd dc 16 32 be a9 b7 b7 bd 5d a9 e9 bd
       -0.031800218 -0.17391533 -0.08970577 -0.114092566
000340 40 cd 45 be fd 7b 05 3c 62 08 da 3d 01 bb 90 3c
       -0.19316578 0.008147237 0.1064613 0.017667295
000350 ee 87 d1 bd e6 3d 39 be 42 2c fe bd e3 51 af 3c
       -0.10231005 -0.18090019 -0.12410785 0.021401351
000360 ae 85 fd 3d 91 8e 42 bd 94 66 0b be da 2a cb bd
       0.12379013 -0.047499243 -0.13613349 -0.09920283
000370 96 c2 86 bc 20 43 59 be 51 bd 1f be 67 54 1a 3e
       -0.016450208 -0.21217012 -0.15599562 0.1507126
000380 85 dc d8 3c 80 17 e3 bd 8b 1e 0e bd 1d 1e 1a be
       0.02647234 -0.11088467 -0.034697097 -0.1505055
000390 7b 7b ee bd bc ae 27 3d 8e 71 04 3f 52 43 db 3d
       -0.11644646 0.040938124 0.5173577 0.107062
0003a0 d9 79 f5 bd a8 31 e2 bd 01 25 90 3e b5 3f c4 3e
       -0.11986131 -0.110446274 0.28153232 0.38329855
0003b0 9d d2 dd 3d ff d7 2d bd e6 5d f6 bd fd 5f 4b be
       0.10831187 -0.042442318 -0.120296285 -0.19860835
0003c0 be 66 10 be 3c 96 d3 bc 16 a6 d4 bd 68 7d 46 be
       -0.14101693 -0.025828473 -0.10383241 -0.19383776
0003d0 e2 fc c7 bd 1c ca 2e 3d 73 3a 1d be 40 dd 24 bd
       -0.097650304 0.042673215 -0.15354328 -0.040250063
0003e0 15 35 10 be cb 9f 00 bf 3e 51 89 3c e8 90 ae 3e
       -0.14082749 -0.50243825 0.016762372 0.3409493
0003f0 7c 9a 12 3e 59 26 a7 bb df 2d 58 be 34 0e 0d bd
       0.14316744 -0.005101007 -0.21111248 -0.034437373

model.2.bias f4 [32]
000000 5d 35 e7 3c 36 4d 88 bd f9 3f ee bd 86 f5 13 be
       0.028223688 -0.06655352 -0.116332956 -0.14449129
000010 77 af 62 3e f8 75 f4 3d 41 f1 bc bd b6 80 ca 3d
       0.22137247 0.11936563 -0.09225703 0.09887831
000020 d3 c6 81 3a f8 7a d9 bd 7a 88 86 3e ce 28 76 3e
       0.0009901173 -0.106191576 0.26275998 0.24039003
000030 9a 8e eb 3e 23 e5 2e 3e 8e a6 08 bd cf 08 8e 3e
       0.46007234 0.17079596 -0.033361964 0.27741095
000040 a5 17 30 3e 3a 75 17 be b2 9b 8c 3c 95 a9 e7 3d
       0.1719652 -0.14790812 0.017164085 0.11311642
000050 a6 2b 58 3d fc aa a5 bc 00 eb bf 3e b4 d0 95 bc
       0.052776 -0.020223133 0.37483978 -0.018287994
000060 e5 e6 4c bd c9 b7 7e bd 89 6a 9e 3e 61 17 cc 3d
       -0.050024886 -0.06218699 0.30940655 0.09965397
000070 19 ef 75 bd b1 85 53 bd e8 9f 19 3e 02 ed 29 3e
       -0.060042474 -0.05164117 0.15002406 0.16594318

model.4.weight f4 [4, 32]
000000 5f a4 8a 3e 9f e2 a9 3e 39 4b f0 bd e5 44 e6 3e
       0.2707853 0.3318071 -0.117330976 0.44974437
000010 1c d7 f1 3d 27 78 ba be c8 ce 9e 3d 2a 02 d6 3d
       0.11808607 -0.36419794 0.07754284 0.104496315
000020 02 2a 25 3e b5 4d 27 be 96 53 01 3e 5c fb 03 3f
       0.16129306 -0.16338237 0.12629542 0.5155542
000030 bd 0e 46 3e 4b 81 0d bf 2b 8c 28 bf 89 8f e3 3d
       0.1934156 -0.5527541 -0.6583888 0.111113615
000040 32 d8 8b 3d 70 94 51 3e 78 90 98 3d e3 d8 9f 3e
       0.06828345 0.2046678 0.0744943 0.3122016
000050 d0 7f 93 3e f1 89 9a 3e e2 ef 01 3e e0 3a 6a be
       0.2880845 0.30183366 0.12689164 -0.22874022
000060 9c 96 65 be b8 43 32 3e 91 e6 85 3e fe 19 25 be
       -0.22420734 0.17408645 0.2615247 -0.16123196
000070 a3 21 3b 3e 06 cd d0 be 78 a2 94 3e 90 6c d0 3e
       0.1827455 -0.4078142 0.29030204 0.40707827
000080 34 8d ae 3e 80 4f 90 3e e0 85 29 be 0e 36 ee 3e
       0.34092104 0.28185654 -0.16554976 0.46525615
000090 92 f1 65 3e 0f 77 1d be 60 96 f6 3c ae 32 7a 3e
       0.22455433 -0.15377448 0.030101001 0.24433395
0000a0 c9 29 94 bd 7d 7d cb bd a8 a2 fb 3d 8c ae 11 3f
       -0.072345324 -0.09936044 0.122868836 0.5690696
0000b0 81 49 4a 3e 83 4a ee 3c 73 ca 7d be 3e 09 6f 3e
       0.19754602 0.029088264 -0.2478426 0.2334337
0000c0 63 c3 23 3d a6 76 2f 3d 7b 57 85 3e 2b fc c0 3e
       0.039981257 0.04283776 0.26043305 0.3769239
0000d0 1b ed 5f 3e 63 97 53 3e a0 9f 27 3e d9 0f 90 be
       0.21867792 0.20663218 0.16369486 -0.2813709
0000e0 1f e0 89 be 8c 85 78 3e b9 45 6a 3e 45 8e 00 be
       -0.26928803 0.24269694 0.2287816 -0.12554272
0000f0 69 3f 05 3e 5b 0d 04 be 56 36 ac 3e 46 33 8c 3e
       0.1301247 -0.1289572 0.33635205 0.2738287
000100 04 45 f6 3b c2 15 a1 3e 11 ac 43 be 2f 42 10 be
       0.0075155515 0.31461912 -0.19108607 -0.14087747
000110 f9 9a 03 3e 45 71 b9 be 04 b7 20 bd 63 21 9e 3e
       0.12852086 -0.3621923 -0.039237037 0.30884847
000120 3e a9 49 bd 27 ff a4 3e 2b 6b cf 3d 1c dc 7c 3e
       -0.049233668 0.32225916 0.101278625 0.2469334
000130 d1 98 8e 3e 07 45 24 3d a0 4b b3 be bd 81 c7 3e
       0.27850965 0.040104892 -0.35018635 0.3896617
000140 bd aa 86 3e 09 8a a2 be 0e 17 0a 3e 3f 26 15 bd
       0.26302138 -0.31745937 0.13485357 -0.036413427
000150 30 06 de 3e 9e 19 8b 3e 61 ad 87 3e 8c bb 8a 3e
       0.43364096 0.27167982 0.26499465 0.27096212
000160 a8 38 09 bf 17 17 c0 bb db 5b 6b 3e 0f d3 8f bd
       -0.53602076 -0.0058621275 0.22984259 -0.07022678
000170 61 2f 2f 3c 15 42 eb bc 68 02 58 3e fb d7 9d 3e
       0.010692448 -0.028718034 0.21094668 0.30828843
000180 a5 dc 0e 3f 4b e3 1a 3e d3 07 7d be 65 1f 2a 3e
       0.55805427 0.15125768 -0.24710016 0.16613539
000190 0e 2c 4b 3e 47 f6 d0 bd 4d ac d1 bd 17 09 8e 3e
       0.19841024 -0.10203224 -0.10237942 0.2774131
0001a0 2f 75 d0 3d 32 00 68 3e c8 c8 2e 3e 9c 54 1c 3f
       0.10178601 0.22656325 0.1706878 0.61066604
0001b0 35 f3 6a 3e b9 32 ec bc 8d a5 b6 be a5 b7 19 3e
       0.22944339 -0.02883278 -0.3567318 0.15011461
0001c0 29 12 f8 3e e4 da b9 bb 1b 8a 07 3d 21 a7 d7 3d
       0.48451355 -0.0056718457 0.033090692 0.10529924
0001d0 80 c9 97 3e 46 6c b9 3e 22 eb 67 3d 1a 5a d6 be
       0.2964592 0.3621542 0.056620724 -0.41865617
0001e0 e6 ca d1 be 98 64 c9 3e 7b 76 03 3e 95 62 c3 be
       -0.40975112 0.3933456 0.12838165 -0.3816115
0001f0 cc fc fb 3e 65 53 86 3c 66 0a 34 be d9 90 e1 3c
       0.49216306 0.016397187 -0.17582092 0.027534889

model.4.bias f4 [4]
000000 6f 42 b4 3e 20 86 28 3e fa 16 d8 3d 6e 20 95 3e
       0.35206935 0.16457415 0.105512574 0.29126304
